<?xml version="1.0"?>
<net name="main_graph" version="11">
	<layers>
		<layer id="0" name="input" type="Parameter" version="opset1">
			<data shape="1,2048,4" element_type="f32" />
			<output>
				<port id="0" precision="FP32" names="input">
					<dim>1</dim>
					<dim>2048</dim>
					<dim>4</dim>
				</port>
			</output>
		</layer>
		<layer id="1" name="Constant_23525_compressed" type="Const" version="opset1">
			<data element_type="f16" shape="1, 1, 2" offset="0" size="4" />
			<output>
				<port id="0" precision="FP16">
					<dim>1</dim>
					<dim>1</dim>
					<dim>2</dim>
				</port>
			</output>
		</layer>
		<layer id="2" name="Constant_23525" type="Convert" version="opset1">
			<data destination_type="f32" />
			<rt_info>
				<attribute name="decompression" version="0" />
			</rt_info>
			<input>
				<port id="0" precision="FP16">
					<dim>1</dim>
					<dim>1</dim>
					<dim>2</dim>
				</port>
			</input>
			<output>
				<port id="1" precision="FP32">
					<dim>1</dim>
					<dim>1</dim>
					<dim>2</dim>
				</port>
			</output>
		</layer>
		<layer id="3" name="Constant_23524_compressed" type="Const" version="opset1">
			<data element_type="f16" shape="1, 1, 48" offset="4" size="96" />
			<output>
				<port id="0" precision="FP16">
					<dim>1</dim>
					<dim>1</dim>
					<dim>48</dim>
				</port>
			</output>
		</layer>
		<layer id="4" name="Constant_23524" type="Convert" version="opset1">
			<data destination_type="f32" />
			<rt_info>
				<attribute name="decompression" version="0" />
			</rt_info>
			<input>
				<port id="0" precision="FP16">
					<dim>1</dim>
					<dim>1</dim>
					<dim>48</dim>
				</port>
			</input>
			<output>
				<port id="1" precision="FP32">
					<dim>1</dim>
					<dim>1</dim>
					<dim>48</dim>
				</port>
			</output>
		</layer>
		<layer id="5" name="Constant_23523_compressed" type="Const" version="opset1">
			<data element_type="f16" shape="1, 1, 48" offset="100" size="96" />
			<output>
				<port id="0" precision="FP16">
					<dim>1</dim>
					<dim>1</dim>
					<dim>48</dim>
				</port>
			</output>
		</layer>
		<layer id="6" name="Constant_23523" type="Convert" version="opset1">
			<data destination_type="f32" />
			<rt_info>
				<attribute name="decompression" version="0" />
			</rt_info>
			<input>
				<port id="0" precision="FP16">
					<dim>1</dim>
					<dim>1</dim>
					<dim>48</dim>
				</port>
			</input>
			<output>
				<port id="1" precision="FP32">
					<dim>1</dim>
					<dim>1</dim>
					<dim>48</dim>
				</port>
			</output>
		</layer>
		<layer id="7" name="Constant_23386_compressed" type="Const" version="opset1">
			<data element_type="f16" shape="1, 1, 1, 48" offset="196" size="96" />
			<output>
				<port id="0" precision="FP16">
					<dim>1</dim>
					<dim>1</dim>
					<dim>1</dim>
					<dim>48</dim>
				</port>
			</output>
		</layer>
		<layer id="8" name="Constant_23386" type="Convert" version="opset1">
			<data destination_type="f32" />
			<rt_info>
				<attribute name="decompression" version="0" />
			</rt_info>
			<input>
				<port id="0" precision="FP16">
					<dim>1</dim>
					<dim>1</dim>
					<dim>1</dim>
					<dim>48</dim>
				</port>
			</input>
			<output>
				<port id="1" precision="FP32">
					<dim>1</dim>
					<dim>1</dim>
					<dim>1</dim>
					<dim>48</dim>
				</port>
			</output>
		</layer>
		<layer id="9" name="Constant_23385_compressed" type="Const" version="opset1">
			<data element_type="f16" shape="1, 1, 1, 48" offset="292" size="96" />
			<output>
				<port id="0" precision="FP16">
					<dim>1</dim>
					<dim>1</dim>
					<dim>1</dim>
					<dim>48</dim>
				</port>
			</output>
		</layer>
		<layer id="10" name="Constant_23385" type="Convert" version="opset1">
			<data destination_type="f32" />
			<rt_info>
				<attribute name="decompression" version="0" />
			</rt_info>
			<input>
				<port id="0" precision="FP16">
					<dim>1</dim>
					<dim>1</dim>
					<dim>1</dim>
					<dim>48</dim>
				</port>
			</input>
			<output>
				<port id="1" precision="FP32">
					<dim>1</dim>
					<dim>1</dim>
					<dim>1</dim>
					<dim>48</dim>
				</port>
			</output>
		</layer>
		<layer id="11" name="/Constant_4" type="Const" version="opset1">
			<data element_type="i64" shape="1" offset="388" size="8" />
			<output>
				<port id="0" precision="I64" names="/Constant_4_output_0">
					<dim>1</dim>
				</port>
			</output>
		</layer>
		<layer id="12" name="/Constant_5" type="Const" version="opset1">
			<data element_type="i64" shape="1" offset="396" size="8" />
			<output>
				<port id="0" precision="I64" names="/Constant_5_output_0">
					<dim>1</dim>
				</port>
			</output>
		</layer>
		<layer id="13" name="/Constant_6" type="Const" version="opset1">
			<data element_type="i64" shape="1" offset="404" size="8" />
			<output>
				<port id="0" precision="I64" names="/Constant_6_output_0">
					<dim>1</dim>
				</port>
			</output>
		</layer>
		<layer id="14" name="/Constant_3" type="Const" version="opset1">
			<data element_type="i64" shape="1" offset="412" size="8" />
			<output>
				<port id="0" precision="I64" names="/Constant_3_output_0">
					<dim>1</dim>
				</port>
			</output>
		</layer>
		<layer id="15" name="output" type="Slice" version="opset8">
			<input>
				<port id="0" precision="FP32">
					<dim>1</dim>
					<dim>2048</dim>
					<dim>4</dim>
				</port>
				<port id="1" precision="I64">
					<dim>1</dim>
				</port>
				<port id="2" precision="I64">
					<dim>1</dim>
				</port>
				<port id="3" precision="I64">
					<dim>1</dim>
				</port>
				<port id="4" precision="I64">
					<dim>1</dim>
				</port>
			</input>
			<output>
				<port id="5" precision="FP32" names="output">
					<dim>1</dim>
					<dim>2048</dim>
					<dim>3</dim>
				</port>
			</output>
		</layer>
		<layer id="16" name="/ptb_0/gva/Constant" type="Const" version="opset1">
			<data element_type="i64" shape="1" offset="420" size="8" />
			<output>
				<port id="0" precision="I64" names="/ptb_0/gva/Constant_output_0">
					<dim>1</dim>
				</port>
			</output>
		</layer>
		<layer id="17" name="/ptb_0/gva/Unsqueeze" type="Unsqueeze" version="opset1">
			<input>
				<port id="0" precision="FP32">
					<dim>1</dim>
					<dim>2048</dim>
					<dim>3</dim>
				</port>
				<port id="1" precision="I64">
					<dim>1</dim>
				</port>
			</input>
			<output>
				<port id="2" precision="FP32" names="/ptb_0/gva/Unsqueeze_1_output_0,/ptb_0/gva/Unsqueeze_output_0,/ptb_9/gva/Unsqueeze_output_0">
					<dim>1</dim>
					<dim>2048</dim>
					<dim>1</dim>
					<dim>3</dim>
				</port>
			</output>
		</layer>
		<layer id="18" name="/ptb_0/Shape_1" type="ShapeOf" version="opset3">
			<data output_type="i64" />
			<input>
				<port id="0" precision="FP32">
					<dim>1</dim>
					<dim>2048</dim>
					<dim>3</dim>
				</port>
			</input>
			<output>
				<port id="1" precision="I64" names="/ptb_0/Shape_1_output_0,/ptb_9/Shape_1_output_0">
					<dim>3</dim>
				</port>
			</output>
		</layer>
		<layer id="19" name="Constant_421" type="Const" version="opset1">
			<data element_type="i64" shape="1" offset="388" size="8" />
			<rt_info>
				<attribute name="precise" version="0" />
			</rt_info>
			<output>
				<port id="0" precision="I64">
					<dim>1</dim>
				</port>
			</output>
		</layer>
		<layer id="20" name="Constant_420" type="Const" version="opset1">
			<data element_type="i64" shape="1" offset="412" size="8" />
			<rt_info>
				<attribute name="precise" version="0" />
			</rt_info>
			<output>
				<port id="0" precision="I64">
					<dim>1</dim>
				</port>
			</output>
		</layer>
		<layer id="21" name="Constant_422" type="Const" version="opset1">
			<data element_type="i64" shape="1" offset="404" size="8" />
			<rt_info>
				<attribute name="precise" version="0" />
			</rt_info>
			<output>
				<port id="0" precision="I64">
					<dim>1</dim>
				</port>
			</output>
		</layer>
		<layer id="22" name="StridedSlice_423" type="StridedSlice" version="opset1">
			<data begin_mask="0" end_mask="0" new_axis_mask="" shrink_axis_mask="" ellipsis_mask="" />
			<input>
				<port id="0" precision="I64">
					<dim>3</dim>
				</port>
				<port id="1" precision="I64">
					<dim>1</dim>
				</port>
				<port id="2" precision="I64">
					<dim>1</dim>
				</port>
				<port id="3" precision="I64">
					<dim>1</dim>
				</port>
			</input>
			<output>
				<port id="4" precision="I64">
					<dim>2</dim>
				</port>
			</output>
		</layer>
		<layer id="23" name="Constant_424" type="Const" version="opset1">
			<data element_type="i64" shape="" offset="388" size="8" />
			<rt_info>
				<attribute name="precise" version="0" />
			</rt_info>
			<output>
				<port id="0" precision="I64" />
			</output>
		</layer>
		<layer id="24" name="ReduceProd_425" type="ReduceProd" version="opset1">
			<data keep_dims="true" />
			<input>
				<port id="0" precision="I64">
					<dim>2</dim>
				</port>
				<port id="1" precision="I64" />
			</input>
			<output>
				<port id="2" precision="I64">
					<dim>1</dim>
				</port>
			</output>
		</layer>
		<layer id="25" name="Constant_426" type="Const" version="opset1">
			<data element_type="i64" shape="1" offset="428" size="8" />
			<rt_info>
				<attribute name="precise" version="0" />
			</rt_info>
			<output>
				<port id="0" precision="I64">
					<dim>1</dim>
				</port>
			</output>
		</layer>
		<layer id="26" name="Concat_427" type="Concat" version="opset1">
			<data axis="0" />
			<input>
				<port id="0" precision="I64">
					<dim>1</dim>
				</port>
				<port id="1" precision="I64">
					<dim>1</dim>
				</port>
			</input>
			<output>
				<port id="2" precision="I64">
					<dim>2</dim>
				</port>
			</output>
		</layer>
		<layer id="27" name="/ptb_0/Flatten" type="Reshape" version="opset1">
			<data special_zero="true" />
			<input>
				<port id="0" precision="FP32">
					<dim>1</dim>
					<dim>2048</dim>
					<dim>3</dim>
				</port>
				<port id="1" precision="I64">
					<dim>2</dim>
				</port>
			</input>
			<output>
				<port id="2" precision="FP32" names="/ptb_0/Flatten_output_0,/ptb_9/Flatten_output_0">
					<dim>2048</dim>
					<dim>3</dim>
				</port>
			</output>
		</layer>
		<layer id="28" name="/ptb_0/Constant" type="Const" version="opset1">
			<data element_type="i64" shape="1" offset="412" size="8" />
			<output>
				<port id="0" precision="I64" names="/ptb_0/Constant_output_0">
					<dim>1</dim>
				</port>
			</output>
		</layer>
		<layer id="29" name="/ptb_0/Unsqueeze" type="Unsqueeze" version="opset1">
			<input>
				<port id="0" precision="FP32">
					<dim>1</dim>
					<dim>2048</dim>
					<dim>3</dim>
				</port>
				<port id="1" precision="I64">
					<dim>1</dim>
				</port>
			</input>
			<output>
				<port id="2" precision="FP32" names="/ptb_0/Unsqueeze_output_0,/ptb_9/Unsqueeze_output_0,/tub_9/Unsqueeze_output_0">
					<dim>1</dim>
					<dim>2048</dim>
					<dim>1</dim>
					<dim>3</dim>
				</port>
			</output>
		</layer>
		<layer id="30" name="/ptb_0/Constant_1" type="Const" version="opset1">
			<data element_type="i64" shape="1" offset="404" size="8" />
			<output>
				<port id="0" precision="I64" names="/ptb_0/Constant_1_output_0">
					<dim>1</dim>
				</port>
			</output>
		</layer>
		<layer id="31" name="/ptb_0/Unsqueeze_1" type="Unsqueeze" version="opset1">
			<input>
				<port id="0" precision="FP32">
					<dim>1</dim>
					<dim>2048</dim>
					<dim>3</dim>
				</port>
				<port id="1" precision="I64">
					<dim>1</dim>
				</port>
			</input>
			<output>
				<port id="2" precision="FP32" names="/ptb_0/Unsqueeze_1_output_0,/ptb_9/Unsqueeze_1_output_0">
					<dim>1</dim>
					<dim>1</dim>
					<dim>2048</dim>
					<dim>3</dim>
				</port>
			</output>
		</layer>
		<layer id="32" name="/ptb_0/Sub" type="Subtract" version="opset1">
			<data auto_broadcast="numpy" />
			<input>
				<port id="0" precision="FP32">
					<dim>1</dim>
					<dim>2048</dim>
					<dim>1</dim>
					<dim>3</dim>
				</port>
				<port id="1" precision="FP32">
					<dim>1</dim>
					<dim>1</dim>
					<dim>2048</dim>
					<dim>3</dim>
				</port>
			</input>
			<output>
				<port id="2" precision="FP32" names="/ptb_0/Sub_output_0,/ptb_9/Sub_output_0">
					<dim>1</dim>
					<dim>2048</dim>
					<dim>2048</dim>
					<dim>3</dim>
				</port>
			</output>
		</layer>
		<layer id="33" name="Constant_23383_compressed" type="Const" version="opset1">
			<data element_type="f16" shape="1, 1, 1, 1" offset="436" size="2" />
			<output>
				<port id="0" precision="FP16">
					<dim>1</dim>
					<dim>1</dim>
					<dim>1</dim>
					<dim>1</dim>
				</port>
			</output>
		</layer>
		<layer id="34" name="Constant_23383" type="Convert" version="opset1">
			<data destination_type="f32" />
			<rt_info>
				<attribute name="decompression" version="0" />
			</rt_info>
			<input>
				<port id="0" precision="FP16">
					<dim>1</dim>
					<dim>1</dim>
					<dim>1</dim>
					<dim>1</dim>
				</port>
			</input>
			<output>
				<port id="1" precision="FP32">
					<dim>1</dim>
					<dim>1</dim>
					<dim>1</dim>
					<dim>1</dim>
				</port>
			</output>
		</layer>
		<layer id="35" name="/ptb_0/Pow" type="Power" version="opset1">
			<data auto_broadcast="numpy" />
			<input>
				<port id="0" precision="FP32">
					<dim>1</dim>
					<dim>2048</dim>
					<dim>2048</dim>
					<dim>3</dim>
				</port>
				<port id="1" precision="FP32">
					<dim>1</dim>
					<dim>1</dim>
					<dim>1</dim>
					<dim>1</dim>
				</port>
			</input>
			<output>
				<port id="2" precision="FP32" names="/ptb_0/Pow_output_0,/ptb_9/Pow_output_0">
					<dim>1</dim>
					<dim>2048</dim>
					<dim>2048</dim>
					<dim>3</dim>
				</port>
			</output>
		</layer>
		<layer id="36" name="/ptb_0/Constant_4" type="Const" version="opset1">
			<data element_type="i64" shape="1" offset="428" size="8" />
			<output>
				<port id="0" precision="I64" names="/ptb_0/Constant_4_output_0">
					<dim>1</dim>
				</port>
			</output>
		</layer>
		<layer id="37" name="/ptb_0/ReduceSum" type="ReduceSum" version="opset1">
			<data keep_dims="false" />
			<input>
				<port id="0" precision="FP32">
					<dim>1</dim>
					<dim>2048</dim>
					<dim>2048</dim>
					<dim>3</dim>
				</port>
				<port id="1" precision="I64">
					<dim>1</dim>
				</port>
			</input>
			<output>
				<port id="2" precision="FP32" names="/ptb_0/ReduceSum_output_0,/ptb_9/ReduceSum_output_0">
					<dim>1</dim>
					<dim>2048</dim>
					<dim>2048</dim>
				</port>
			</output>
		</layer>
		<layer id="38" name="Constant_23384_compressed" type="Const" version="opset1">
			<data element_type="f16" shape="1, 1, 1" offset="438" size="2" />
			<output>
				<port id="0" precision="FP16">
					<dim>1</dim>
					<dim>1</dim>
					<dim>1</dim>
				</port>
			</output>
		</layer>
		<layer id="39" name="Constant_23384" type="Convert" version="opset1">
			<data destination_type="f32" />
			<rt_info>
				<attribute name="decompression" version="0" />
			</rt_info>
			<input>
				<port id="0" precision="FP16">
					<dim>1</dim>
					<dim>1</dim>
					<dim>1</dim>
				</port>
			</input>
			<output>
				<port id="1" precision="FP32">
					<dim>1</dim>
					<dim>1</dim>
					<dim>1</dim>
				</port>
			</output>
		</layer>
		<layer id="40" name="/ptb_0/Pow_1" type="Power" version="opset1">
			<data auto_broadcast="numpy" />
			<input>
				<port id="0" precision="FP32">
					<dim>1</dim>
					<dim>2048</dim>
					<dim>2048</dim>
				</port>
				<port id="1" precision="FP32">
					<dim>1</dim>
					<dim>1</dim>
					<dim>1</dim>
				</port>
			</input>
			<output>
				<port id="2" precision="FP32" names="/ptb_0/Pow_1_output_0,/ptb_9/Pow_1_output_0">
					<dim>1</dim>
					<dim>2048</dim>
					<dim>2048</dim>
				</port>
			</output>
		</layer>
		<layer id="41" name="Constant_4803" type="Const" version="opset1">
			<data element_type="i64" shape="" offset="440" size="8" />
			<rt_info>
				<attribute name="precise" version="0" />
			</rt_info>
			<output>
				<port id="0" precision="I64" />
			</output>
		</layer>
		<layer id="42" name="/ptb_9/TopK" type="TopK" version="opset11">
			<data axis="-1" mode="min" sort="value" index_element_type="i64" stable="false" />
			<input>
				<port id="0" precision="FP32">
					<dim>1</dim>
					<dim>2048</dim>
					<dim>2048</dim>
				</port>
				<port id="1" precision="I64" />
			</input>
			<output>
				<port id="2" precision="FP32" names="/ptb_9/TopK_output_0">
					<dim>1</dim>
					<dim>2048</dim>
					<dim>16</dim>
				</port>
				<port id="3" precision="I64" names="/ptb_9/TopK_output_1">
					<dim>1</dim>
					<dim>2048</dim>
					<dim>16</dim>
				</port>
			</output>
		</layer>
		<layer id="43" name="/ptb_0/Constant_7" type="Const" version="opset1">
			<data element_type="i64" shape="" offset="388" size="8" />
			<output>
				<port id="0" precision="I64" names="/ptb_0/Constant_7_output_0" />
			</output>
		</layer>
		<layer id="44" name="Constant_24611" type="Const" version="opset1">
			<data element_type="i64" shape="" offset="388" size="8" />
			<output>
				<port id="0" precision="I64" />
			</output>
		</layer>
		<layer id="45" name="Constant_24612" type="Const" version="opset1">
			<data element_type="i64" shape="" offset="388" size="8" />
			<output>
				<port id="0" precision="I64" />
			</output>
		</layer>
		<layer id="46" name="Gather_24613" type="Gather" version="opset8">
			<data batch_dims="0" />
			<input>
				<port id="0" precision="I64">
					<dim>3</dim>
				</port>
				<port id="1" precision="I64" />
				<port id="2" precision="I64" />
			</input>
			<output>
				<port id="3" precision="I64" names="/ptb_0/Cast_1_output_0,/ptb_0/Cast_output_0,/ptb_0/Gather_output_0,/ptb_9/Cast_1_output_0,/ptb_9/Cast_output_0,/ptb_9/Gather_output_0,/tub_9/Cast_output_0,/tub_9/Gather_output_0" />
			</output>
		</layer>
		<layer id="47" name="/ptb_0/Constant_8" type="Const" version="opset1">
			<data element_type="i64" shape="" offset="404" size="8" />
			<output>
				<port id="0" precision="I64" names="/ptb_0/Constant_8_output_0" />
			</output>
		</layer>
		<layer id="48" name="/ptb_0/Range" type="Range" version="opset4">
			<data output_type="i64" />
			<input>
				<port id="0" precision="I64" />
				<port id="1" precision="I64" />
				<port id="2" precision="I64" />
			</input>
			<output>
				<port id="3" precision="I64" names="/ptb_0/Range_1_output_0,/ptb_0/Range_output_0,/ptb_9/Range_1_output_0,/ptb_9/Range_output_0,/tub_9/Range_output_0">
					<dim>1</dim>
				</port>
			</output>
		</layer>
		<layer id="49" name="/ptb_0/Constant_9" type="Const" version="opset1">
			<data element_type="i64" shape="3" offset="448" size="24" />
			<rt_info>
				<attribute name="precise" version="0" />
			</rt_info>
			<output>
				<port id="0" precision="I64" names="/ptb_0/Constant_9_output_0">
					<dim>3</dim>
				</port>
			</output>
		</layer>
		<layer id="50" name="/ptb_0/Reshape" type="Reshape" version="opset1">
			<data special_zero="true" />
			<input>
				<port id="0" precision="I64">
					<dim>1</dim>
				</port>
				<port id="1" precision="I64">
					<dim>3</dim>
				</port>
			</input>
			<output>
				<port id="2" precision="I64" names="/ptb_0/Reshape_3_output_0,/ptb_0/Reshape_output_0,/ptb_9/Reshape_3_output_0,/ptb_9/Reshape_output_0">
					<dim>1</dim>
					<dim>1</dim>
					<dim>1</dim>
				</port>
			</output>
		</layer>
		<layer id="51" name="/ptb_0/Constant_10" type="Const" version="opset1">
			<data element_type="i64" shape="1" offset="404" size="8" />
			<rt_info>
				<attribute name="precise" version="0" />
			</rt_info>
			<output>
				<port id="0" precision="I64" names="/ptb_0/Constant_10_output_0">
					<dim>1</dim>
				</port>
			</output>
		</layer>
		<layer id="52" name="Constant_413" type="Const" version="opset1">
			<data element_type="i64" shape="" offset="388" size="8" />
			<rt_info>
				<attribute name="precise" version="0" />
			</rt_info>
			<output>
				<port id="0" precision="I64" />
			</output>
		</layer>
		<layer id="53" name="/ptb_0/Gather_1" type="Gather" version="opset8">
			<data batch_dims="0" />
			<input>
				<port id="0" precision="I64">
					<dim>3</dim>
				</port>
				<port id="1" precision="I64">
					<dim>1</dim>
				</port>
				<port id="2" precision="I64" />
			</input>
			<output>
				<port id="3" precision="I64" names="/ptb_0/Gather_1_output_0,/ptb_9/Gather_1_output_0,/tub_9/Gather_1_output_0,/tub_9/Unsqueeze_2_output_0">
					<dim>1</dim>
				</port>
			</output>
		</layer>
		<layer id="54" name="/ptb_0/Mul" type="Multiply" version="opset1">
			<data auto_broadcast="numpy" />
			<input>
				<port id="0" precision="I64">
					<dim>1</dim>
					<dim>1</dim>
					<dim>1</dim>
				</port>
				<port id="1" precision="I64">
					<dim>1</dim>
				</port>
			</input>
			<output>
				<port id="2" precision="I64" names="/ptb_0/Mul_output_0,/ptb_9/Mul_output_0">
					<dim>1</dim>
					<dim>1</dim>
					<dim>1</dim>
				</port>
			</output>
		</layer>
		<layer id="55" name="/ptb_9/Add" type="Add" version="opset1">
			<data auto_broadcast="numpy" />
			<input>
				<port id="0" precision="I64">
					<dim>1</dim>
					<dim>2048</dim>
					<dim>16</dim>
				</port>
				<port id="1" precision="I64">
					<dim>1</dim>
					<dim>1</dim>
					<dim>1</dim>
				</port>
			</input>
			<output>
				<port id="2" precision="I64" names="/ptb_9/Add_output_0">
					<dim>1</dim>
					<dim>2048</dim>
					<dim>16</dim>
				</port>
			</output>
		</layer>
		<layer id="56" name="Constant_4862" type="Const" version="opset1">
			<data element_type="i64" shape="" offset="388" size="8" />
			<output>
				<port id="0" precision="I64" />
			</output>
		</layer>
		<layer id="57" name="/ptb_9/Gather_3" type="Gather" version="opset8">
			<data batch_dims="0" />
			<input>
				<port id="0" precision="FP32">
					<dim>2048</dim>
					<dim>3</dim>
				</port>
				<port id="1" precision="I64">
					<dim>1</dim>
					<dim>2048</dim>
					<dim>16</dim>
				</port>
				<port id="2" precision="I64" />
			</input>
			<output>
				<port id="3" precision="FP32" names="/ptb_9/Gather_3_output_0">
					<dim>1</dim>
					<dim>2048</dim>
					<dim>16</dim>
					<dim>3</dim>
				</port>
			</output>
		</layer>
		<layer id="58" name="/ptb_0/Constant_12" type="Const" version="opset1">
			<data element_type="i64" shape="1" offset="428" size="8" />
			<rt_info>
				<attribute name="precise" version="0" />
			</rt_info>
			<output>
				<port id="0" precision="I64" names="/ptb_0/Constant_12_output_0">
					<dim>1</dim>
				</port>
			</output>
		</layer>
		<layer id="59" name="Constant_24616" type="Const" version="opset1">
			<data element_type="i64" shape="1" offset="412" size="8" />
			<rt_info>
				<attribute name="precise" version="0" />
			</rt_info>
			<output>
				<port id="0" precision="I64">
					<dim>1</dim>
				</port>
			</output>
		</layer>
		<layer id="60" name="Constant_24617" type="Const" version="opset1">
			<data element_type="i64" shape="" offset="388" size="8" />
			<rt_info>
				<attribute name="precise" version="0" />
			</rt_info>
			<output>
				<port id="0" precision="I64" />
			</output>
		</layer>
		<layer id="61" name="Gather_24618" type="Gather" version="opset8">
			<data batch_dims="0" />
			<input>
				<port id="0" precision="I64">
					<dim>3</dim>
				</port>
				<port id="1" precision="I64">
					<dim>1</dim>
				</port>
				<port id="2" precision="I64" />
			</input>
			<output>
				<port id="3" precision="I64" names="/ptb_0/Gather_2_output_0,/ptb_9/Gather_2_output_0">
					<dim>1</dim>
				</port>
			</output>
		</layer>
		<layer id="62" name="/ptb_0/Concat" type="Concat" version="opset1">
			<data axis="0" />
			<input>
				<port id="0" precision="I64">
					<dim>1</dim>
				</port>
				<port id="1" precision="I64">
					<dim>1</dim>
				</port>
			</input>
			<output>
				<port id="2" precision="I64" names="/ptb_0/Concat_output_0,/ptb_9/Concat_output_0">
					<dim>2</dim>
				</port>
			</output>
		</layer>
		<layer id="63" name="/ptb_9/Reshape_1" type="Reshape" version="opset1">
			<data special_zero="true" />
			<input>
				<port id="0" precision="FP32">
					<dim>1</dim>
					<dim>2048</dim>
					<dim>16</dim>
					<dim>3</dim>
				</port>
				<port id="1" precision="I64">
					<dim>2</dim>
				</port>
			</input>
			<output>
				<port id="2" precision="FP32" names="/ptb_9/Reshape_1_output_0">
					<dim>32768</dim>
					<dim>3</dim>
				</port>
			</output>
		</layer>
		<layer id="64" name="/ptb_9/Shape_2" type="ShapeOf" version="opset3">
			<data output_type="i64" />
			<input>
				<port id="0" precision="I64">
					<dim>1</dim>
					<dim>2048</dim>
					<dim>16</dim>
				</port>
			</input>
			<output>
				<port id="1" precision="I64" names="/ptb_9/Shape_2_output_0">
					<dim>3</dim>
				</port>
			</output>
		</layer>
		<layer id="65" name="/ptb_9/Concat_1" type="Concat" version="opset1">
			<data axis="0" />
			<input>
				<port id="0" precision="I64">
					<dim>3</dim>
				</port>
				<port id="1" precision="I64">
					<dim>1</dim>
				</port>
			</input>
			<output>
				<port id="2" precision="I64" names="/ptb_9/Concat_1_output_0">
					<dim>4</dim>
				</port>
			</output>
		</layer>
		<layer id="66" name="/ptb_9/Reshape_2" type="Reshape" version="opset1">
			<data special_zero="true" />
			<input>
				<port id="0" precision="FP32">
					<dim>32768</dim>
					<dim>3</dim>
				</port>
				<port id="1" precision="I64">
					<dim>4</dim>
				</port>
			</input>
			<output>
				<port id="2" precision="FP32" names="/ptb_9/Reshape_2_output_0">
					<dim>1</dim>
					<dim>2048</dim>
					<dim>16</dim>
					<dim>3</dim>
				</port>
			</output>
		</layer>
		<layer id="67" name="/ptb_9/gva/delta_mult/Sub" type="Subtract" version="opset1">
			<data auto_broadcast="numpy" />
			<input>
				<port id="0" precision="FP32">
					<dim>1</dim>
					<dim>2048</dim>
					<dim>1</dim>
					<dim>3</dim>
				</port>
				<port id="1" precision="FP32">
					<dim>1</dim>
					<dim>2048</dim>
					<dim>16</dim>
					<dim>3</dim>
				</port>
			</input>
			<output>
				<port id="2" precision="FP32" names="/ptb_9/gva/delta_mult/Sub_output_0">
					<dim>1</dim>
					<dim>2048</dim>
					<dim>16</dim>
					<dim>3</dim>
				</port>
			</output>
		</layer>
		<layer id="68" name="Transpose_19109_compressed" type="Const" version="opset1">
			<data element_type="f16" shape="48, 3" offset="472" size="288" />
			<output>
				<port id="0" precision="FP16">
					<dim>48</dim>
					<dim>3</dim>
				</port>
			</output>
		</layer>
		<layer id="69" name="Transpose_19109" type="Convert" version="opset1">
			<data destination_type="f32" />
			<rt_info>
				<attribute name="decompression" version="0" />
			</rt_info>
			<input>
				<port id="0" precision="FP16">
					<dim>48</dim>
					<dim>3</dim>
				</port>
			</input>
			<output>
				<port id="1" precision="FP32">
					<dim>48</dim>
					<dim>3</dim>
				</port>
			</output>
		</layer>
		<layer id="70" name="/ptb_9/gva/delta_mult/linear_1/MatMul" type="MatMul" version="opset1">
			<data transpose_a="false" transpose_b="true" />
			<input>
				<port id="0" precision="FP32">
					<dim>1</dim>
					<dim>2048</dim>
					<dim>16</dim>
					<dim>3</dim>
				</port>
				<port id="1" precision="FP32">
					<dim>48</dim>
					<dim>3</dim>
				</port>
			</input>
			<output>
				<port id="2" precision="FP32" names="/ptb_9/gva/delta_mult/linear_1/MatMul_output_0">
					<dim>1</dim>
					<dim>2048</dim>
					<dim>16</dim>
					<dim>48</dim>
				</port>
			</output>
		</layer>
		<layer id="71" name="/ptb_9/gva/delta_mult/linear_1/Add" type="Add" version="opset1">
			<data auto_broadcast="numpy" />
			<input>
				<port id="0" precision="FP32">
					<dim>1</dim>
					<dim>1</dim>
					<dim>1</dim>
					<dim>48</dim>
				</port>
				<port id="1" precision="FP32">
					<dim>1</dim>
					<dim>2048</dim>
					<dim>16</dim>
					<dim>48</dim>
				</port>
			</input>
			<output>
				<port id="2" precision="FP32" names="/ptb_9/gva/delta_mult/linear_1/Add_output_0">
					<dim>1</dim>
					<dim>2048</dim>
					<dim>16</dim>
					<dim>48</dim>
				</port>
			</output>
		</layer>
		<layer id="72" name="Constant_4944" type="Const" version="opset1">
			<data element_type="i64" shape="4" offset="760" size="32" />
			<output>
				<port id="0" precision="I64">
					<dim>4</dim>
				</port>
			</output>
		</layer>
		<layer id="73" name="/ptb_9/gva/delta_mult/Transpose" type="Transpose" version="opset1">
			<input>
				<port id="0" precision="FP32">
					<dim>1</dim>
					<dim>2048</dim>
					<dim>16</dim>
					<dim>48</dim>
				</port>
				<port id="1" precision="I64">
					<dim>4</dim>
				</port>
			</input>
			<output>
				<port id="2" precision="FP32" names="/ptb_9/gva/delta_mult/Transpose_output_0">
					<dim>1</dim>
					<dim>48</dim>
					<dim>2048</dim>
					<dim>16</dim>
				</port>
			</output>
		</layer>
		<layer id="74" name="Constant_20173_compressed" type="Const" version="opset1">
			<data element_type="f16" shape="1, 48, 1, 1" offset="792" size="96" />
			<output>
				<port id="0" precision="FP16">
					<dim>1</dim>
					<dim>48</dim>
					<dim>1</dim>
					<dim>1</dim>
				</port>
			</output>
		</layer>
		<layer id="75" name="Constant_20173" type="Convert" version="opset1">
			<data destination_type="f32" />
			<rt_info>
				<attribute name="decompression" version="0" />
			</rt_info>
			<input>
				<port id="0" precision="FP16">
					<dim>1</dim>
					<dim>48</dim>
					<dim>1</dim>
					<dim>1</dim>
				</port>
			</input>
			<output>
				<port id="1" precision="FP32">
					<dim>1</dim>
					<dim>48</dim>
					<dim>1</dim>
					<dim>1</dim>
				</port>
			</output>
		</layer>
		<layer id="76" name="Multiply_22549" type="Multiply" version="opset1">
			<data auto_broadcast="numpy" />
			<input>
				<port id="0" precision="FP32">
					<dim>1</dim>
					<dim>48</dim>
					<dim>2048</dim>
					<dim>16</dim>
				</port>
				<port id="1" precision="FP32">
					<dim>1</dim>
					<dim>48</dim>
					<dim>1</dim>
					<dim>1</dim>
				</port>
			</input>
			<output>
				<port id="2" precision="FP32">
					<dim>1</dim>
					<dim>48</dim>
					<dim>2048</dim>
					<dim>16</dim>
				</port>
			</output>
		</layer>
		<layer id="77" name="Constant_22554_compressed" type="Const" version="opset1">
			<data element_type="f16" shape="1, 48, 1, 1" offset="888" size="96" />
			<output>
				<port id="0" precision="FP16">
					<dim>1</dim>
					<dim>48</dim>
					<dim>1</dim>
					<dim>1</dim>
				</port>
			</output>
		</layer>
		<layer id="78" name="Constant_22554" type="Convert" version="opset1">
			<data destination_type="f32" />
			<rt_info>
				<attribute name="decompression" version="0" />
			</rt_info>
			<input>
				<port id="0" precision="FP16">
					<dim>1</dim>
					<dim>48</dim>
					<dim>1</dim>
					<dim>1</dim>
				</port>
			</input>
			<output>
				<port id="1" precision="FP32">
					<dim>1</dim>
					<dim>48</dim>
					<dim>1</dim>
					<dim>1</dim>
				</port>
			</output>
		</layer>
		<layer id="79" name="/ptb_9/gva/delta_mult/batch_norm/BatchNormalization" type="Add" version="opset1">
			<data auto_broadcast="numpy" />
			<input>
				<port id="0" precision="FP32">
					<dim>1</dim>
					<dim>48</dim>
					<dim>2048</dim>
					<dim>16</dim>
				</port>
				<port id="1" precision="FP32">
					<dim>1</dim>
					<dim>48</dim>
					<dim>1</dim>
					<dim>1</dim>
				</port>
			</input>
			<output>
				<port id="2" precision="FP32" names="/ptb_9/gva/delta_mult/batch_norm/BatchNormalization_output_0">
					<dim>1</dim>
					<dim>48</dim>
					<dim>2048</dim>
					<dim>16</dim>
				</port>
			</output>
		</layer>
		<layer id="80" name="Constant_4947" type="Const" version="opset1">
			<data element_type="i64" shape="4" offset="984" size="32" />
			<output>
				<port id="0" precision="I64">
					<dim>4</dim>
				</port>
			</output>
		</layer>
		<layer id="81" name="/ptb_9/gva/delta_mult/Transpose_1" type="Transpose" version="opset1">
			<input>
				<port id="0" precision="FP32">
					<dim>1</dim>
					<dim>48</dim>
					<dim>2048</dim>
					<dim>16</dim>
				</port>
				<port id="1" precision="I64">
					<dim>4</dim>
				</port>
			</input>
			<output>
				<port id="2" precision="FP32" names="/ptb_9/gva/delta_mult/Transpose_1_output_0">
					<dim>1</dim>
					<dim>2048</dim>
					<dim>16</dim>
					<dim>48</dim>
				</port>
			</output>
		</layer>
		<layer id="82" name="/ptb_9/gva/delta_mult/relu/Relu" type="ReLU" version="opset1">
			<input>
				<port id="0" precision="FP32">
					<dim>1</dim>
					<dim>2048</dim>
					<dim>16</dim>
					<dim>48</dim>
				</port>
			</input>
			<output>
				<port id="1" precision="FP32" names="/ptb_9/gva/delta_mult/relu/Relu_output_0">
					<dim>1</dim>
					<dim>2048</dim>
					<dim>16</dim>
					<dim>48</dim>
				</port>
			</output>
		</layer>
		<layer id="83" name="Transpose_19116_compressed" type="Const" version="opset1">
			<data element_type="f16" shape="48, 48" offset="1016" size="4608" />
			<output>
				<port id="0" precision="FP16">
					<dim>48</dim>
					<dim>48</dim>
				</port>
			</output>
		</layer>
		<layer id="84" name="Transpose_19116" type="Convert" version="opset1">
			<data destination_type="f32" />
			<rt_info>
				<attribute name="decompression" version="0" />
			</rt_info>
			<input>
				<port id="0" precision="FP16">
					<dim>48</dim>
					<dim>48</dim>
				</port>
			</input>
			<output>
				<port id="1" precision="FP32">
					<dim>48</dim>
					<dim>48</dim>
				</port>
			</output>
		</layer>
		<layer id="85" name="/ptb_9/gva/delta_mult/linear_2/MatMul" type="MatMul" version="opset1">
			<data transpose_a="false" transpose_b="true" />
			<input>
				<port id="0" precision="FP32">
					<dim>1</dim>
					<dim>2048</dim>
					<dim>16</dim>
					<dim>48</dim>
				</port>
				<port id="1" precision="FP32">
					<dim>48</dim>
					<dim>48</dim>
				</port>
			</input>
			<output>
				<port id="2" precision="FP32" names="/ptb_9/gva/delta_mult/linear_2/MatMul_output_0">
					<dim>1</dim>
					<dim>2048</dim>
					<dim>16</dim>
					<dim>48</dim>
				</port>
			</output>
		</layer>
		<layer id="86" name="/ptb_9/gva/delta_mult/linear_2/Add" type="Add" version="opset1">
			<data auto_broadcast="numpy" />
			<input>
				<port id="0" precision="FP32">
					<dim>1</dim>
					<dim>1</dim>
					<dim>1</dim>
					<dim>48</dim>
				</port>
				<port id="1" precision="FP32">
					<dim>1</dim>
					<dim>2048</dim>
					<dim>16</dim>
					<dim>48</dim>
				</port>
			</input>
			<output>
				<port id="2" precision="FP32" names="/ptb_9/gva/delta_mult/linear_2/Add_output_0">
					<dim>1</dim>
					<dim>2048</dim>
					<dim>16</dim>
					<dim>48</dim>
				</port>
			</output>
		</layer>
		<layer id="87" name="Constant_23518_compressed" type="Const" version="opset1">
			<data element_type="f16" shape="1, 1, 1, 48" offset="5624" size="96" />
			<output>
				<port id="0" precision="FP16">
					<dim>1</dim>
					<dim>1</dim>
					<dim>1</dim>
					<dim>48</dim>
				</port>
			</output>
		</layer>
		<layer id="88" name="Constant_23518" type="Convert" version="opset1">
			<data destination_type="f32" />
			<rt_info>
				<attribute name="decompression" version="0" />
			</rt_info>
			<input>
				<port id="0" precision="FP16">
					<dim>1</dim>
					<dim>1</dim>
					<dim>1</dim>
					<dim>48</dim>
				</port>
			</input>
			<output>
				<port id="1" precision="FP32">
					<dim>1</dim>
					<dim>1</dim>
					<dim>1</dim>
					<dim>48</dim>
				</port>
			</output>
		</layer>
		<layer id="89" name="Constant_23517_compressed" type="Const" version="opset1">
			<data element_type="f16" shape="1, 1, 48" offset="5720" size="96" />
			<output>
				<port id="0" precision="FP16">
					<dim>1</dim>
					<dim>1</dim>
					<dim>48</dim>
				</port>
			</output>
		</layer>
		<layer id="90" name="Constant_23517" type="Convert" version="opset1">
			<data destination_type="f32" />
			<rt_info>
				<attribute name="decompression" version="0" />
			</rt_info>
			<input>
				<port id="0" precision="FP16">
					<dim>1</dim>
					<dim>1</dim>
					<dim>48</dim>
				</port>
			</input>
			<output>
				<port id="1" precision="FP32">
					<dim>1</dim>
					<dim>1</dim>
					<dim>48</dim>
				</port>
			</output>
		</layer>
		<layer id="91" name="Constant_23510_compressed" type="Const" version="opset1">
			<data element_type="f16" shape="1, 1, 48" offset="5816" size="96" />
			<output>
				<port id="0" precision="FP16">
					<dim>1</dim>
					<dim>1</dim>
					<dim>48</dim>
				</port>
			</output>
		</layer>
		<layer id="92" name="Constant_23510" type="Convert" version="opset1">
			<data destination_type="f32" />
			<rt_info>
				<attribute name="decompression" version="0" />
			</rt_info>
			<input>
				<port id="0" precision="FP16">
					<dim>1</dim>
					<dim>1</dim>
					<dim>48</dim>
				</port>
			</input>
			<output>
				<port id="1" precision="FP32">
					<dim>1</dim>
					<dim>1</dim>
					<dim>48</dim>
				</port>
			</output>
		</layer>
		<layer id="93" name="Constant_23509_compressed" type="Const" version="opset1">
			<data element_type="f16" shape="1, 1, 96" offset="5912" size="192" />
			<output>
				<port id="0" precision="FP16">
					<dim>1</dim>
					<dim>1</dim>
					<dim>96</dim>
				</port>
			</output>
		</layer>
		<layer id="94" name="Constant_23509" type="Convert" version="opset1">
			<data destination_type="f32" />
			<rt_info>
				<attribute name="decompression" version="0" />
			</rt_info>
			<input>
				<port id="0" precision="FP16">
					<dim>1</dim>
					<dim>1</dim>
					<dim>96</dim>
				</port>
			</input>
			<output>
				<port id="1" precision="FP32">
					<dim>1</dim>
					<dim>1</dim>
					<dim>96</dim>
				</port>
			</output>
		</layer>
		<layer id="95" name="Constant_23508_compressed" type="Const" version="opset1">
			<data element_type="f16" shape="1, 1, 96" offset="6104" size="192" />
			<output>
				<port id="0" precision="FP16">
					<dim>1</dim>
					<dim>1</dim>
					<dim>96</dim>
				</port>
			</output>
		</layer>
		<layer id="96" name="Constant_23508" type="Convert" version="opset1">
			<data destination_type="f32" />
			<rt_info>
				<attribute name="decompression" version="0" />
			</rt_info>
			<input>
				<port id="0" precision="FP16">
					<dim>1</dim>
					<dim>1</dim>
					<dim>96</dim>
				</port>
			</input>
			<output>
				<port id="1" precision="FP32">
					<dim>1</dim>
					<dim>1</dim>
					<dim>96</dim>
				</port>
			</output>
		</layer>
		<layer id="97" name="Constant_23392_compressed" type="Const" version="opset1">
			<data element_type="f16" shape="1, 1, 1, 96" offset="6296" size="192" />
			<output>
				<port id="0" precision="FP16">
					<dim>1</dim>
					<dim>1</dim>
					<dim>1</dim>
					<dim>96</dim>
				</port>
			</output>
		</layer>
		<layer id="98" name="Constant_23392" type="Convert" version="opset1">
			<data destination_type="f32" />
			<rt_info>
				<attribute name="decompression" version="0" />
			</rt_info>
			<input>
				<port id="0" precision="FP16">
					<dim>1</dim>
					<dim>1</dim>
					<dim>1</dim>
					<dim>96</dim>
				</port>
			</input>
			<output>
				<port id="1" precision="FP32">
					<dim>1</dim>
					<dim>1</dim>
					<dim>1</dim>
					<dim>96</dim>
				</port>
			</output>
		</layer>
		<layer id="99" name="Constant_23391_compressed" type="Const" version="opset1">
			<data element_type="f16" shape="1, 1, 1, 96" offset="6488" size="192" />
			<output>
				<port id="0" precision="FP16">
					<dim>1</dim>
					<dim>1</dim>
					<dim>1</dim>
					<dim>96</dim>
				</port>
			</output>
		</layer>
		<layer id="100" name="Constant_23391" type="Convert" version="opset1">
			<data destination_type="f32" />
			<rt_info>
				<attribute name="decompression" version="0" />
			</rt_info>
			<input>
				<port id="0" precision="FP16">
					<dim>1</dim>
					<dim>1</dim>
					<dim>1</dim>
					<dim>96</dim>
				</port>
			</input>
			<output>
				<port id="1" precision="FP32">
					<dim>1</dim>
					<dim>1</dim>
					<dim>1</dim>
					<dim>96</dim>
				</port>
			</output>
		</layer>
		<layer id="101" name="Constant_842_compressed" type="Const" version="opset1">
			<data element_type="f16" shape="" offset="6680" size="2" />
			<output>
				<port id="0" precision="FP16" />
			</output>
		</layer>
		<layer id="102" name="Constant_842" type="Convert" version="opset1">
			<data destination_type="f32" />
			<rt_info>
				<attribute name="decompression" version="0" />
			</rt_info>
			<input>
				<port id="0" precision="FP16" />
			</input>
			<output>
				<port id="1" precision="FP32" />
			</output>
		</layer>
		<layer id="103" name="/Constant" type="Const" version="opset1">
			<data element_type="i64" shape="" offset="388" size="8" />
			<output>
				<port id="0" precision="I64" names="/Constant_output_0" />
			</output>
		</layer>
		<layer id="104" name="Constant_684" type="Const" version="opset1">
			<data element_type="i64" shape="" offset="388" size="8" />
			<output>
				<port id="0" precision="I64" />
			</output>
		</layer>
		<layer id="105" name="/tdb_1/Gather" type="Gather" version="opset8">
			<data batch_dims="0" />
			<input>
				<port id="0" precision="FP32">
					<dim>1</dim>
					<dim>2048</dim>
					<dim>3</dim>
				</port>
				<port id="1" precision="I64" />
				<port id="2" precision="I64" />
			</input>
			<output>
				<port id="3" precision="FP32" names="/tdb_1/Gather_8_output_0,/tdb_1/Gather_output_0">
					<dim>2048</dim>
					<dim>3</dim>
				</port>
			</output>
		</layer>
		<layer id="106" name="Constant_23387_compressed" type="Const" version="opset1">
			<data element_type="f16" shape="1, 3" offset="6682" size="6" />
			<output>
				<port id="0" precision="FP16">
					<dim>1</dim>
					<dim>3</dim>
				</port>
			</output>
		</layer>
		<layer id="107" name="Constant_23387" type="Convert" version="opset1">
			<data destination_type="f32" />
			<rt_info>
				<attribute name="decompression" version="0" />
			</rt_info>
			<input>
				<port id="0" precision="FP16">
					<dim>1</dim>
					<dim>3</dim>
				</port>
			</input>
			<output>
				<port id="1" precision="FP32">
					<dim>1</dim>
					<dim>3</dim>
				</port>
			</output>
		</layer>
		<layer id="108" name="/tdb_1/Div" type="Multiply" version="opset1">
			<data auto_broadcast="numpy" />
			<input>
				<port id="0" precision="FP32">
					<dim>2048</dim>
					<dim>3</dim>
				</port>
				<port id="1" precision="FP32">
					<dim>1</dim>
					<dim>3</dim>
				</port>
			</input>
			<output>
				<port id="2" precision="FP32" names="/tdb_1/Div_output_0">
					<dim>2048</dim>
					<dim>3</dim>
				</port>
			</output>
		</layer>
		<layer id="109" name="/tdb_1/Floor" type="Floor" version="opset1">
			<input>
				<port id="0" precision="FP32">
					<dim>2048</dim>
					<dim>3</dim>
				</port>
			</input>
			<output>
				<port id="1" precision="FP32" names="/tdb_1/Floor_output_0">
					<dim>2048</dim>
					<dim>3</dim>
				</port>
			</output>
		</layer>
		<layer id="110" name="/tdb_1/Cast" type="Convert" version="opset1">
			<data destination_type="i64" />
			<input>
				<port id="0" precision="FP32">
					<dim>2048</dim>
					<dim>3</dim>
				</port>
			</input>
			<output>
				<port id="1" precision="I64" names="/tdb_1/Cast_output_0">
					<dim>2048</dim>
					<dim>3</dim>
				</port>
			</output>
		</layer>
		<layer id="111" name="Constant_694" type="Const" version="opset1">
			<data element_type="i64" shape="" offset="404" size="8" />
			<output>
				<port id="0" precision="I64" />
			</output>
		</layer>
		<layer id="112" name="/tdb_1/Gather_1" type="Gather" version="opset8">
			<data batch_dims="0" />
			<input>
				<port id="0" precision="I64">
					<dim>2048</dim>
					<dim>3</dim>
				</port>
				<port id="1" precision="I64" />
				<port id="2" precision="I64" />
			</input>
			<output>
				<port id="3" precision="I64" names="/tdb_1/Gather_1_output_0">
					<dim>2048</dim>
				</port>
			</output>
		</layer>
		<layer id="113" name="/Constant_1" type="Const" version="opset1">
			<data element_type="i64" shape="" offset="404" size="8" />
			<output>
				<port id="0" precision="I64" names="/Constant_1_output_0" />
			</output>
		</layer>
		<layer id="114" name="Constant_696" type="Const" version="opset1">
			<data element_type="i64" shape="" offset="404" size="8" />
			<output>
				<port id="0" precision="I64" />
			</output>
		</layer>
		<layer id="115" name="/tdb_1/Gather_2" type="Gather" version="opset8">
			<data batch_dims="0" />
			<input>
				<port id="0" precision="I64">
					<dim>2048</dim>
					<dim>3</dim>
				</port>
				<port id="1" precision="I64" />
				<port id="2" precision="I64" />
			</input>
			<output>
				<port id="3" precision="I64" names="/tdb_1/Gather_2_output_0">
					<dim>2048</dim>
				</port>
			</output>
		</layer>
		<layer id="116" name="Constant_690" type="Const" version="opset1">
			<data element_type="i64" shape="1" offset="388" size="8" />
			<output>
				<port id="0" precision="I64">
					<dim>1</dim>
				</port>
			</output>
		</layer>
		<layer id="117" name="/tdb_1/ReduceMax" type="ReduceMax" version="opset1">
			<data keep_dims="false" />
			<input>
				<port id="0" precision="I64">
					<dim>2048</dim>
					<dim>3</dim>
				</port>
				<port id="1" precision="I64">
					<dim>1</dim>
				</port>
			</input>
			<output>
				<port id="2" precision="I64" names="/tdb_1/ReduceMax_output_0">
					<dim>3</dim>
				</port>
			</output>
		</layer>
		<layer id="118" name="Constant_23388" type="Const" version="opset1">
			<data element_type="i64" shape="1" offset="404" size="8" />
			<output>
				<port id="0" precision="I64">
					<dim>1</dim>
				</port>
			</output>
		</layer>
		<layer id="119" name="/tdb_1/Add" type="Add" version="opset1">
			<data auto_broadcast="numpy" />
			<input>
				<port id="0" precision="I64">
					<dim>3</dim>
				</port>
				<port id="1" precision="I64">
					<dim>1</dim>
				</port>
			</input>
			<output>
				<port id="2" precision="I64" names="/tdb_1/Add_output_0">
					<dim>3</dim>
				</port>
			</output>
		</layer>
		<layer id="120" name="Constant_698" type="Const" version="opset1">
			<data element_type="i64" shape="" offset="388" size="8" />
			<output>
				<port id="0" precision="I64" />
			</output>
		</layer>
		<layer id="121" name="/tdb_1/Gather_3" type="Gather" version="opset8">
			<data batch_dims="0" />
			<input>
				<port id="0" precision="I64">
					<dim>3</dim>
				</port>
				<port id="1" precision="I64" />
				<port id="2" precision="I64" />
			</input>
			<output>
				<port id="3" precision="I64" names="/tdb_1/Gather_3_output_0" />
			</output>
		</layer>
		<layer id="122" name="/tdb_1/Mul" type="Multiply" version="opset1">
			<data auto_broadcast="numpy" />
			<input>
				<port id="0" precision="I64">
					<dim>2048</dim>
				</port>
				<port id="1" precision="I64" />
			</input>
			<output>
				<port id="2" precision="I64" names="/tdb_1/Mul_output_0">
					<dim>2048</dim>
				</port>
			</output>
		</layer>
		<layer id="123" name="/tdb_1/Add_1" type="Add" version="opset1">
			<data auto_broadcast="numpy" />
			<input>
				<port id="0" precision="I64">
					<dim>2048</dim>
				</port>
				<port id="1" precision="I64">
					<dim>2048</dim>
				</port>
			</input>
			<output>
				<port id="2" precision="I64" names="/tdb_1/Add_1_output_0">
					<dim>2048</dim>
				</port>
			</output>
		</layer>
		<layer id="124" name="/Constant_2" type="Const" version="opset1">
			<data element_type="i64" shape="" offset="412" size="8" />
			<output>
				<port id="0" precision="I64" names="/Constant_2_output_0" />
			</output>
		</layer>
		<layer id="125" name="Constant_702" type="Const" version="opset1">
			<data element_type="i64" shape="" offset="404" size="8" />
			<output>
				<port id="0" precision="I64" />
			</output>
		</layer>
		<layer id="126" name="/tdb_1/Gather_4" type="Gather" version="opset8">
			<data batch_dims="0" />
			<input>
				<port id="0" precision="I64">
					<dim>2048</dim>
					<dim>3</dim>
				</port>
				<port id="1" precision="I64" />
				<port id="2" precision="I64" />
			</input>
			<output>
				<port id="3" precision="I64" names="/tdb_1/Gather_4_output_0">
					<dim>2048</dim>
				</port>
			</output>
		</layer>
		<layer id="127" name="/tdb_1/Mul_1" type="Multiply" version="opset1">
			<data auto_broadcast="numpy" />
			<input>
				<port id="0" precision="I64">
					<dim>2048</dim>
				</port>
				<port id="1" precision="I64" />
			</input>
			<output>
				<port id="2" precision="I64" names="/tdb_1/Mul_1_output_0">
					<dim>2048</dim>
				</port>
			</output>
		</layer>
		<layer id="128" name="Constant_705" type="Const" version="opset1">
			<data element_type="i64" shape="" offset="388" size="8" />
			<output>
				<port id="0" precision="I64" />
			</output>
		</layer>
		<layer id="129" name="/tdb_1/Gather_5" type="Gather" version="opset8">
			<data batch_dims="0" />
			<input>
				<port id="0" precision="I64">
					<dim>3</dim>
				</port>
				<port id="1" precision="I64" />
				<port id="2" precision="I64" />
			</input>
			<output>
				<port id="3" precision="I64" names="/tdb_1/Gather_5_output_0" />
			</output>
		</layer>
		<layer id="130" name="/tdb_1/Mul_2" type="Multiply" version="opset1">
			<data auto_broadcast="numpy" />
			<input>
				<port id="0" precision="I64">
					<dim>2048</dim>
				</port>
				<port id="1" precision="I64" />
			</input>
			<output>
				<port id="2" precision="I64" names="/tdb_1/Mul_2_output_0">
					<dim>2048</dim>
				</port>
			</output>
		</layer>
		<layer id="131" name="/tdb_1/Add_2" type="Add" version="opset1">
			<data auto_broadcast="numpy" />
			<input>
				<port id="0" precision="I64">
					<dim>2048</dim>
				</port>
				<port id="1" precision="I64">
					<dim>2048</dim>
				</port>
			</input>
			<output>
				<port id="2" precision="I64" names="/tdb_1/Add_2_output_0">
					<dim>2048</dim>
				</port>
			</output>
		</layer>
		<layer id="132" name="/tdb_1/Unique" type="Unique" version="opset10">
			<data sorted="true" index_element_type="i64" count_element_type="i64" />
			<input>
				<port id="0" precision="I64">
					<dim>2048</dim>
				</port>
			</input>
			<output>
				<port id="1" precision="I64" names="/tdb_1/Unique_output_0">
					<dim>-1</dim>
				</port>
				<port id="2" precision="I64" names="/tdb_1/Unique_output_1">
					<dim>-1</dim>
				</port>
				<port id="3" precision="I64" names="/tdb_1/Unique_output_2">
					<dim>2048</dim>
				</port>
				<port id="4" precision="I64" names="/tdb_1/Unique_output_3">
					<dim>-1</dim>
				</port>
			</output>
		</layer>
		<layer id="133" name="/tdb_1/Shape" type="ShapeOf" version="opset3">
			<data output_type="i64" />
			<input>
				<port id="0" precision="I64">
					<dim>-1</dim>
				</port>
			</input>
			<output>
				<port id="1" precision="I64" names="/tdb_1/Concat_2_output_0,/tdb_1/Gather_6_output_0,/tdb_1/Gather_9_output_0,/tdb_1/Shape_output_0,/tdb_1/Unsqueeze_2_output_0,/tdb_1/Unsqueeze_3_output_0,/tdb_1/Unsqueeze_5_output_0,/tdb_1/Unsqueeze_6_output_0,/tdb_1/Unsqueeze_output_0">
					<dim>1</dim>
				</port>
			</output>
		</layer>
		<layer id="134" name="/tdb_1/Constant_10" type="Const" version="opset1">
			<data element_type="i64" shape="1" offset="396" size="8" />
			<rt_info>
				<attribute name="precise" version="0" />
			</rt_info>
			<output>
				<port id="0" precision="I64" names="/tdb_1/Constant_10_output_0">
					<dim>1</dim>
				</port>
			</output>
		</layer>
		<layer id="135" name="/tdb_1/Concat_1" type="Concat" version="opset1">
			<data axis="0" />
			<input>
				<port id="0" precision="I64">
					<dim>1</dim>
				</port>
				<port id="1" precision="I64">
					<dim>1</dim>
				</port>
			</input>
			<output>
				<port id="2" precision="I64" names="/tdb_1/Concat_1_output_0">
					<dim>2</dim>
				</port>
			</output>
		</layer>
		<layer id="136" name="/tdb_1/ConstantOfShape_3" type="Broadcast" version="opset3">
			<data mode="numpy" />
			<input>
				<port id="0" precision="FP32" />
				<port id="1" precision="I64">
					<dim>2</dim>
				</port>
			</input>
			<output>
				<port id="2" precision="FP32" names="/tdb_1/ConstantOfShape_3_output_0">
					<dim>-1</dim>
					<dim>3</dim>
				</port>
			</output>
		</layer>
		<layer id="137" name="/tdb_1/Constant_4" type="Const" version="opset1">
			<data element_type="i64" shape="1" offset="404" size="8" />
			<output>
				<port id="0" precision="I64" names="/tdb_1/Constant_4_output_0">
					<dim>1</dim>
				</port>
			</output>
		</layer>
		<layer id="138" name="/tdb_1/Unsqueeze_1" type="Unsqueeze" version="opset1">
			<input>
				<port id="0" precision="I64">
					<dim>2048</dim>
				</port>
				<port id="1" precision="I64">
					<dim>1</dim>
				</port>
			</input>
			<output>
				<port id="2" precision="I64" names="/tdb_1/Unsqueeze_1_output_0">
					<dim>2048</dim>
					<dim>1</dim>
				</port>
			</output>
		</layer>
		<layer id="139" name="/tdb_1/Where_1" type="Const" version="opset1">
			<data element_type="i64" shape="2" offset="6688" size="16" />
			<rt_info>
				<attribute name="precise" version="0" />
			</rt_info>
			<output>
				<port id="0" precision="I64" names="/tdb_1/Where_1_output_0">
					<dim>2</dim>
				</port>
			</output>
		</layer>
		<layer id="140" name="/tdb_1/Expand_1" type="Broadcast" version="opset3">
			<data mode="bidirectional" />
			<input>
				<port id="0" precision="I64">
					<dim>2048</dim>
					<dim>1</dim>
				</port>
				<port id="1" precision="I64">
					<dim>2</dim>
				</port>
			</input>
			<output>
				<port id="2" precision="I64" names="/tdb_1/Expand_1_output_0">
					<dim>2048</dim>
					<dim>3</dim>
				</port>
			</output>
		</layer>
		<layer id="141" name="/tdb_1/Constant_15" type="Const" version="opset1">
			<data element_type="i64" shape="2" offset="6704" size="16" />
			<output>
				<port id="0" precision="I64" names="/tdb_1/Constant_15_output_0">
					<dim>2</dim>
				</port>
			</output>
		</layer>
		<layer id="142" name="/tdb_1/Shape_2" type="ShapeOf" version="opset3">
			<data output_type="i64" />
			<input>
				<port id="0" precision="I64">
					<dim>2048</dim>
					<dim>3</dim>
				</port>
			</input>
			<output>
				<port id="1" precision="I64" names="/tdb_1/Shape_2_output_0">
					<dim>2</dim>
				</port>
			</output>
		</layer>
		<layer id="143" name="Broadcast_851" type="Const" version="opset1">
			<data element_type="i64" shape="2" offset="6720" size="16" />
			<output>
				<port id="0" precision="I64">
					<dim>2</dim>
				</port>
			</output>
		</layer>
		<layer id="144" name="Constant_856" type="Const" version="opset1">
			<data element_type="i64" shape="2" offset="6736" size="16" />
			<output>
				<port id="0" precision="I64">
					<dim>2</dim>
				</port>
			</output>
		</layer>
		<layer id="145" name="/tdb_1/Slice" type="Slice" version="opset8">
			<input>
				<port id="0" precision="FP32">
					<dim>2048</dim>
					<dim>3</dim>
				</port>
				<port id="1" precision="I64">
					<dim>2</dim>
				</port>
				<port id="2" precision="I64">
					<dim>2</dim>
				</port>
				<port id="3" precision="I64">
					<dim>2</dim>
				</port>
				<port id="4" precision="I64">
					<dim>2</dim>
				</port>
			</input>
			<output>
				<port id="5" precision="FP32" names="/tdb_1/Slice_output_0">
					<dim>2048</dim>
					<dim>3</dim>
				</port>
			</output>
		</layer>
		<layer id="146" name="Constant_860" type="Const" version="opset1">
			<data element_type="i64" shape="" offset="388" size="8" />
			<output>
				<port id="0" precision="I64" />
			</output>
		</layer>
		<layer id="147" name="/tdb_1/ScatterElements_1" type="ScatterElementsUpdate" version="opset12">
			<data reduction="sum" use_init_val="true" />
			<input>
				<port id="0" precision="FP32">
					<dim>-1</dim>
					<dim>3</dim>
				</port>
				<port id="1" precision="I64">
					<dim>2048</dim>
					<dim>3</dim>
				</port>
				<port id="2" precision="FP32">
					<dim>2048</dim>
					<dim>3</dim>
				</port>
				<port id="3" precision="I64" />
			</input>
			<output>
				<port id="4" precision="FP32" names="/tdb_1/ScatterElements_1_output_0">
					<dim>-1</dim>
					<dim>3</dim>
				</port>
			</output>
		</layer>
		<layer id="148" name="Constant_873_compressed" type="Const" version="opset1">
			<data element_type="f16" shape="" offset="6680" size="2" />
			<output>
				<port id="0" precision="FP16" />
			</output>
		</layer>
		<layer id="149" name="Constant_873" type="Convert" version="opset1">
			<data destination_type="f32" />
			<rt_info>
				<attribute name="decompression" version="0" />
			</rt_info>
			<input>
				<port id="0" precision="FP16" />
			</input>
			<output>
				<port id="1" precision="FP32" />
			</output>
		</layer>
		<layer id="150" name="/tdb_1/ConstantOfShape_5" type="Broadcast" version="opset3">
			<data mode="numpy" />
			<input>
				<port id="0" precision="FP32" />
				<port id="1" precision="I64">
					<dim>1</dim>
				</port>
			</input>
			<output>
				<port id="2" precision="FP32" names="/tdb_1/ConstantOfShape_5_output_0">
					<dim>-1</dim>
				</port>
			</output>
		</layer>
		<layer id="151" name="Constant_867_compressed" type="Const" version="opset1">
			<data element_type="f16" shape="" offset="6752" size="2" />
			<output>
				<port id="0" precision="FP16" />
			</output>
		</layer>
		<layer id="152" name="Constant_867" type="Convert" version="opset1">
			<data destination_type="f32" />
			<rt_info>
				<attribute name="decompression" version="0" />
			</rt_info>
			<input>
				<port id="0" precision="FP16" />
			</input>
			<output>
				<port id="1" precision="FP32" />
			</output>
		</layer>
		<layer id="153" name="Constant_24621" type="Const" version="opset1">
			<data element_type="i64" shape="1" offset="388" size="8" />
			<rt_info>
				<attribute name="precise" version="0" />
			</rt_info>
			<output>
				<port id="0" precision="I64">
					<dim>1</dim>
				</port>
			</output>
		</layer>
		<layer id="154" name="Constant_24622" type="Const" version="opset1">
			<data element_type="i64" shape="" offset="388" size="8" />
			<rt_info>
				<attribute name="precise" version="0" />
			</rt_info>
			<output>
				<port id="0" precision="I64" />
			</output>
		</layer>
		<layer id="155" name="Gather_24623" type="Gather" version="opset8">
			<data batch_dims="0" />
			<input>
				<port id="0" precision="I64">
					<dim>2</dim>
				</port>
				<port id="1" precision="I64">
					<dim>1</dim>
				</port>
				<port id="2" precision="I64" />
			</input>
			<output>
				<port id="3" precision="I64" names="/tdb_1/Shape_3_output_0,/tdb_1/Shape_4_output_0">
					<dim>1</dim>
				</port>
			</output>
		</layer>
		<layer id="156" name="/tdb_1/ConstantOfShape_4" type="Broadcast" version="opset3">
			<data mode="numpy" />
			<input>
				<port id="0" precision="FP32" />
				<port id="1" precision="I64">
					<dim>1</dim>
				</port>
			</input>
			<output>
				<port id="2" precision="FP32" names="/tdb_1/ConstantOfShape_4_output_0">
					<dim>2048</dim>
				</port>
			</output>
		</layer>
		<layer id="157" name="/tdb_1/Constant_16" type="Const" version="opset1">
			<data element_type="i64" shape="1" offset="388" size="8" />
			<output>
				<port id="0" precision="I64" names="/tdb_1/Constant_16_output_0">
					<dim>1</dim>
				</port>
			</output>
		</layer>
		<layer id="158" name="Broadcast_882" type="Const" version="opset1">
			<data element_type="i64" shape="1" offset="404" size="8" />
			<output>
				<port id="0" precision="I64">
					<dim>1</dim>
				</port>
			</output>
		</layer>
		<layer id="159" name="Constant_887" type="Const" version="opset1">
			<data element_type="i64" shape="1" offset="388" size="8" />
			<output>
				<port id="0" precision="I64">
					<dim>1</dim>
				</port>
			</output>
		</layer>
		<layer id="160" name="/tdb_1/Slice_1" type="Slice" version="opset8">
			<input>
				<port id="0" precision="FP32">
					<dim>2048</dim>
				</port>
				<port id="1" precision="I64">
					<dim>1</dim>
				</port>
				<port id="2" precision="I64">
					<dim>1</dim>
				</port>
				<port id="3" precision="I64">
					<dim>1</dim>
				</port>
				<port id="4" precision="I64">
					<dim>1</dim>
				</port>
			</input>
			<output>
				<port id="5" precision="FP32" names="/tdb_1/Slice_1_output_0">
					<dim>2048</dim>
				</port>
			</output>
		</layer>
		<layer id="161" name="Constant_891" type="Const" version="opset1">
			<data element_type="i64" shape="" offset="388" size="8" />
			<output>
				<port id="0" precision="I64" />
			</output>
		</layer>
		<layer id="162" name="/tdb_1/ScatterElements_2" type="ScatterElementsUpdate" version="opset12">
			<data reduction="sum" use_init_val="true" />
			<input>
				<port id="0" precision="FP32">
					<dim>-1</dim>
				</port>
				<port id="1" precision="I64">
					<dim>2048</dim>
				</port>
				<port id="2" precision="FP32">
					<dim>2048</dim>
				</port>
				<port id="3" precision="I64" />
			</input>
			<output>
				<port id="4" precision="FP32" names="/tdb_1/ScatterElements_2_output_0">
					<dim>-1</dim>
				</port>
			</output>
		</layer>
		<layer id="163" name="/tdb_1/Constant_17" type="Const" version="opset1">
			<data element_type="i64" shape="1" offset="404" size="8" />
			<output>
				<port id="0" precision="I64" names="/tdb_1/Constant_17_output_0">
					<dim>1</dim>
				</port>
			</output>
		</layer>
		<layer id="164" name="/tdb_1/Unsqueeze_4" type="Unsqueeze" version="opset1">
			<input>
				<port id="0" precision="FP32">
					<dim>-1</dim>
				</port>
				<port id="1" precision="I64">
					<dim>1</dim>
				</port>
			</input>
			<output>
				<port id="2" precision="FP32" names="/tdb_1/Unsqueeze_4_output_0">
					<dim>-1</dim>
					<dim>1</dim>
				</port>
			</output>
		</layer>
		<layer id="165" name="/tdb_1/Div_1" type="Divide" version="opset1">
			<data auto_broadcast="numpy" m_pythondiv="true" />
			<input>
				<port id="0" precision="FP32">
					<dim>-1</dim>
					<dim>3</dim>
				</port>
				<port id="1" precision="FP32">
					<dim>-1</dim>
					<dim>1</dim>
				</port>
			</input>
			<output>
				<port id="2" precision="FP32" names="/tdb_1/Div_1_output_0">
					<dim>-1</dim>
					<dim>3</dim>
				</port>
			</output>
		</layer>
		<layer id="166" name="/tdb_1/Constant_20" type="Const" version="opset1">
			<data element_type="i64" shape="1" offset="388" size="8" />
			<output>
				<port id="0" precision="I64" names="/tdb_1/Constant_20_output_0">
					<dim>1</dim>
				</port>
			</output>
		</layer>
		<layer id="167" name="/tdb_1/Constant_22" type="Const" version="opset1">
			<data element_type="i64" shape="1" offset="404" size="8" />
			<output>
				<port id="0" precision="I64" names="/tdb_1/Constant_22_output_0">
					<dim>1</dim>
				</port>
			</output>
		</layer>
		<layer id="168" name="/tdb_1/Constant_19" type="Const" version="opset1">
			<data element_type="i64" shape="1" offset="388" size="8" />
			<output>
				<port id="0" precision="I64" names="/tdb_1/Constant_19_output_0">
					<dim>1</dim>
				</port>
			</output>
		</layer>
		<layer id="169" name="/tdb_1/Slice_2" type="Slice" version="opset8">
			<input>
				<port id="0" precision="FP32">
					<dim>-1</dim>
					<dim>3</dim>
				</port>
				<port id="1" precision="I64">
					<dim>1</dim>
				</port>
				<port id="2" precision="I64">
					<dim>1</dim>
				</port>
				<port id="3" precision="I64">
					<dim>1</dim>
				</port>
				<port id="4" precision="I64">
					<dim>1</dim>
				</port>
			</input>
			<output>
				<port id="5" precision="FP32" names="/tdb_1/Slice_2_output_0">
					<dim>-1</dim>
					<dim>3</dim>
				</port>
			</output>
		</layer>
		<layer id="170" name="/tdb_1/Constant_27" type="Const" version="opset1">
			<data element_type="i64" shape="1" offset="388" size="8" />
			<output>
				<port id="0" precision="I64" names="/tdb_1/Constant_27_output_0">
					<dim>1</dim>
				</port>
			</output>
		</layer>
		<layer id="171" name="/tdb_1/Unsqueeze_7" type="Unsqueeze" version="opset1">
			<input>
				<port id="0" precision="FP32">
					<dim>-1</dim>
					<dim>3</dim>
				</port>
				<port id="1" precision="I64">
					<dim>1</dim>
				</port>
			</input>
			<output>
				<port id="2" precision="FP32" names="/tdb_1/Concat_3_output_0,/tdb_1/Unsqueeze_7_output_0">
					<dim>1</dim>
					<dim>-1</dim>
					<dim>3</dim>
				</port>
			</output>
		</layer>
		<layer id="172" name="/ptb_1/gva/Constant" type="Const" version="opset1">
			<data element_type="i64" shape="1" offset="420" size="8" />
			<output>
				<port id="0" precision="I64" names="/ptb_1/gva/Constant_output_0">
					<dim>1</dim>
				</port>
			</output>
		</layer>
		<layer id="173" name="/ptb_1/gva/Unsqueeze" type="Unsqueeze" version="opset1">
			<input>
				<port id="0" precision="FP32">
					<dim>1</dim>
					<dim>-1</dim>
					<dim>3</dim>
				</port>
				<port id="1" precision="I64">
					<dim>1</dim>
				</port>
			</input>
			<output>
				<port id="2" precision="FP32" names="/ptb_1/gva/Unsqueeze_output_0,/ptb_8/gva/Unsqueeze_output_0">
					<dim>1</dim>
					<dim>-1</dim>
					<dim>1</dim>
					<dim>3</dim>
				</port>
			</output>
		</layer>
		<layer id="174" name="/ptb_1/Shape_1" type="ShapeOf" version="opset3">
			<data output_type="i64" />
			<input>
				<port id="0" precision="FP32">
					<dim>1</dim>
					<dim>-1</dim>
					<dim>3</dim>
				</port>
			</input>
			<output>
				<port id="1" precision="I64" names="/ptb_1/Shape_1_output_0,/ptb_8/Shape_1_output_0">
					<dim>3</dim>
				</port>
			</output>
		</layer>
		<layer id="175" name="Constant_961" type="Const" version="opset1">
			<data element_type="i64" shape="1" offset="388" size="8" />
			<rt_info>
				<attribute name="precise" version="0" />
			</rt_info>
			<output>
				<port id="0" precision="I64">
					<dim>1</dim>
				</port>
			</output>
		</layer>
		<layer id="176" name="Constant_960" type="Const" version="opset1">
			<data element_type="i64" shape="1" offset="412" size="8" />
			<rt_info>
				<attribute name="precise" version="0" />
			</rt_info>
			<output>
				<port id="0" precision="I64">
					<dim>1</dim>
				</port>
			</output>
		</layer>
		<layer id="177" name="Constant_962" type="Const" version="opset1">
			<data element_type="i64" shape="1" offset="404" size="8" />
			<rt_info>
				<attribute name="precise" version="0" />
			</rt_info>
			<output>
				<port id="0" precision="I64">
					<dim>1</dim>
				</port>
			</output>
		</layer>
		<layer id="178" name="StridedSlice_963" type="StridedSlice" version="opset1">
			<data begin_mask="0" end_mask="0" new_axis_mask="" shrink_axis_mask="" ellipsis_mask="" />
			<input>
				<port id="0" precision="I64">
					<dim>3</dim>
				</port>
				<port id="1" precision="I64">
					<dim>1</dim>
				</port>
				<port id="2" precision="I64">
					<dim>1</dim>
				</port>
				<port id="3" precision="I64">
					<dim>1</dim>
				</port>
			</input>
			<output>
				<port id="4" precision="I64">
					<dim>2</dim>
				</port>
			</output>
		</layer>
		<layer id="179" name="Constant_964" type="Const" version="opset1">
			<data element_type="i64" shape="" offset="388" size="8" />
			<rt_info>
				<attribute name="precise" version="0" />
			</rt_info>
			<output>
				<port id="0" precision="I64" />
			</output>
		</layer>
		<layer id="180" name="ReduceProd_965" type="ReduceProd" version="opset1">
			<data keep_dims="true" />
			<input>
				<port id="0" precision="I64">
					<dim>2</dim>
				</port>
				<port id="1" precision="I64" />
			</input>
			<output>
				<port id="2" precision="I64">
					<dim>1</dim>
				</port>
			</output>
		</layer>
		<layer id="181" name="Constant_966" type="Const" version="opset1">
			<data element_type="i64" shape="1" offset="428" size="8" />
			<rt_info>
				<attribute name="precise" version="0" />
			</rt_info>
			<output>
				<port id="0" precision="I64">
					<dim>1</dim>
				</port>
			</output>
		</layer>
		<layer id="182" name="Concat_967" type="Concat" version="opset1">
			<data axis="0" />
			<input>
				<port id="0" precision="I64">
					<dim>1</dim>
				</port>
				<port id="1" precision="I64">
					<dim>1</dim>
				</port>
			</input>
			<output>
				<port id="2" precision="I64">
					<dim>2</dim>
				</port>
			</output>
		</layer>
		<layer id="183" name="/ptb_1/Flatten" type="Reshape" version="opset1">
			<data special_zero="true" />
			<input>
				<port id="0" precision="FP32">
					<dim>1</dim>
					<dim>-1</dim>
					<dim>3</dim>
				</port>
				<port id="1" precision="I64">
					<dim>2</dim>
				</port>
			</input>
			<output>
				<port id="2" precision="FP32" names="/ptb_1/Flatten_output_0,/ptb_8/Flatten_output_0">
					<dim>-1</dim>
					<dim>-1</dim>
				</port>
			</output>
		</layer>
		<layer id="184" name="/ptb_1/Constant" type="Const" version="opset1">
			<data element_type="i64" shape="1" offset="412" size="8" />
			<output>
				<port id="0" precision="I64" names="/ptb_1/Constant_output_0">
					<dim>1</dim>
				</port>
			</output>
		</layer>
		<layer id="185" name="/ptb_1/Unsqueeze" type="Unsqueeze" version="opset1">
			<input>
				<port id="0" precision="FP32">
					<dim>1</dim>
					<dim>-1</dim>
					<dim>3</dim>
				</port>
				<port id="1" precision="I64">
					<dim>1</dim>
				</port>
			</input>
			<output>
				<port id="2" precision="FP32" names="/ptb_1/Unsqueeze_output_0,/ptb_8/Unsqueeze_output_0,/tub_8/Unsqueeze_output_0">
					<dim>1</dim>
					<dim>-1</dim>
					<dim>1</dim>
					<dim>3</dim>
				</port>
			</output>
		</layer>
		<layer id="186" name="/ptb_1/Constant_1" type="Const" version="opset1">
			<data element_type="i64" shape="1" offset="404" size="8" />
			<output>
				<port id="0" precision="I64" names="/ptb_1/Constant_1_output_0">
					<dim>1</dim>
				</port>
			</output>
		</layer>
		<layer id="187" name="/ptb_1/Unsqueeze_1" type="Unsqueeze" version="opset1">
			<input>
				<port id="0" precision="FP32">
					<dim>1</dim>
					<dim>-1</dim>
					<dim>3</dim>
				</port>
				<port id="1" precision="I64">
					<dim>1</dim>
				</port>
			</input>
			<output>
				<port id="2" precision="FP32" names="/ptb_1/Unsqueeze_1_output_0,/ptb_8/Unsqueeze_1_output_0,/tub_9/Unsqueeze_1_output_0">
					<dim>1</dim>
					<dim>1</dim>
					<dim>-1</dim>
					<dim>3</dim>
				</port>
			</output>
		</layer>
		<layer id="188" name="/ptb_1/Sub" type="Subtract" version="opset1">
			<data auto_broadcast="numpy" />
			<input>
				<port id="0" precision="FP32">
					<dim>1</dim>
					<dim>-1</dim>
					<dim>1</dim>
					<dim>3</dim>
				</port>
				<port id="1" precision="FP32">
					<dim>1</dim>
					<dim>1</dim>
					<dim>-1</dim>
					<dim>3</dim>
				</port>
			</input>
			<output>
				<port id="2" precision="FP32" names="/ptb_1/Sub_output_0,/ptb_8/Sub_output_0">
					<dim>1</dim>
					<dim>-1</dim>
					<dim>-1</dim>
					<dim>3</dim>
				</port>
			</output>
		</layer>
		<layer id="189" name="Constant_23389_compressed" type="Const" version="opset1">
			<data element_type="f16" shape="1, 1, 1, 1" offset="436" size="2" />
			<output>
				<port id="0" precision="FP16">
					<dim>1</dim>
					<dim>1</dim>
					<dim>1</dim>
					<dim>1</dim>
				</port>
			</output>
		</layer>
		<layer id="190" name="Constant_23389" type="Convert" version="opset1">
			<data destination_type="f32" />
			<rt_info>
				<attribute name="decompression" version="0" />
			</rt_info>
			<input>
				<port id="0" precision="FP16">
					<dim>1</dim>
					<dim>1</dim>
					<dim>1</dim>
					<dim>1</dim>
				</port>
			</input>
			<output>
				<port id="1" precision="FP32">
					<dim>1</dim>
					<dim>1</dim>
					<dim>1</dim>
					<dim>1</dim>
				</port>
			</output>
		</layer>
		<layer id="191" name="/ptb_1/Pow" type="Power" version="opset1">
			<data auto_broadcast="numpy" />
			<input>
				<port id="0" precision="FP32">
					<dim>1</dim>
					<dim>-1</dim>
					<dim>-1</dim>
					<dim>3</dim>
				</port>
				<port id="1" precision="FP32">
					<dim>1</dim>
					<dim>1</dim>
					<dim>1</dim>
					<dim>1</dim>
				</port>
			</input>
			<output>
				<port id="2" precision="FP32" names="/ptb_1/Pow_output_0,/ptb_8/Pow_output_0">
					<dim>1</dim>
					<dim>-1</dim>
					<dim>-1</dim>
					<dim>3</dim>
				</port>
			</output>
		</layer>
		<layer id="192" name="/ptb_1/Constant_4" type="Const" version="opset1">
			<data element_type="i64" shape="1" offset="428" size="8" />
			<output>
				<port id="0" precision="I64" names="/ptb_1/Constant_4_output_0">
					<dim>1</dim>
				</port>
			</output>
		</layer>
		<layer id="193" name="/ptb_1/ReduceSum" type="ReduceSum" version="opset1">
			<data keep_dims="false" />
			<input>
				<port id="0" precision="FP32">
					<dim>1</dim>
					<dim>-1</dim>
					<dim>-1</dim>
					<dim>3</dim>
				</port>
				<port id="1" precision="I64">
					<dim>1</dim>
				</port>
			</input>
			<output>
				<port id="2" precision="FP32" names="/ptb_1/ReduceSum_output_0,/ptb_8/ReduceSum_output_0">
					<dim>1</dim>
					<dim>-1</dim>
					<dim>-1</dim>
				</port>
			</output>
		</layer>
		<layer id="194" name="Constant_23390_compressed" type="Const" version="opset1">
			<data element_type="f16" shape="1, 1, 1" offset="438" size="2" />
			<output>
				<port id="0" precision="FP16">
					<dim>1</dim>
					<dim>1</dim>
					<dim>1</dim>
				</port>
			</output>
		</layer>
		<layer id="195" name="Constant_23390" type="Convert" version="opset1">
			<data destination_type="f32" />
			<rt_info>
				<attribute name="decompression" version="0" />
			</rt_info>
			<input>
				<port id="0" precision="FP16">
					<dim>1</dim>
					<dim>1</dim>
					<dim>1</dim>
				</port>
			</input>
			<output>
				<port id="1" precision="FP32">
					<dim>1</dim>
					<dim>1</dim>
					<dim>1</dim>
				</port>
			</output>
		</layer>
		<layer id="196" name="/ptb_1/Pow_1" type="Power" version="opset1">
			<data auto_broadcast="numpy" />
			<input>
				<port id="0" precision="FP32">
					<dim>1</dim>
					<dim>-1</dim>
					<dim>-1</dim>
				</port>
				<port id="1" precision="FP32">
					<dim>1</dim>
					<dim>1</dim>
					<dim>1</dim>
				</port>
			</input>
			<output>
				<port id="2" precision="FP32" names="/ptb_1/Pow_1_output_0,/ptb_8/Pow_1_output_0">
					<dim>1</dim>
					<dim>-1</dim>
					<dim>-1</dim>
				</port>
			</output>
		</layer>
		<layer id="197" name="Constant_4292" type="Const" version="opset1">
			<data element_type="i64" shape="" offset="6754" size="8" />
			<rt_info>
				<attribute name="precise" version="0" />
			</rt_info>
			<output>
				<port id="0" precision="I64" />
			</output>
		</layer>
		<layer id="198" name="/ptb_8/TopK" type="TopK" version="opset11">
			<data axis="-1" mode="min" sort="value" index_element_type="i64" stable="false" />
			<input>
				<port id="0" precision="FP32">
					<dim>1</dim>
					<dim>-1</dim>
					<dim>-1</dim>
				</port>
				<port id="1" precision="I64" />
			</input>
			<output>
				<port id="2" precision="FP32" names="/ptb_8/TopK_output_0">
					<dim>1</dim>
					<dim>-1</dim>
					<dim>4</dim>
				</port>
				<port id="3" precision="I64" names="/ptb_8/TopK_output_1">
					<dim>1</dim>
					<dim>-1</dim>
					<dim>4</dim>
				</port>
			</output>
		</layer>
		<layer id="199" name="/ptb_8/Constant_7" type="Const" version="opset1">
			<data element_type="i64" shape="" offset="388" size="8" />
			<output>
				<port id="0" precision="I64" names="/ptb_8/Constant_7_output_0" />
			</output>
		</layer>
		<layer id="200" name="/ptb_8/Shape" type="ShapeOf" version="opset3">
			<data output_type="i64" />
			<input>
				<port id="0" precision="I64">
					<dim>1</dim>
					<dim>-1</dim>
					<dim>4</dim>
				</port>
			</input>
			<output>
				<port id="1" precision="I64" names="/ptb_8/Shape_output_0">
					<dim>3</dim>
				</port>
			</output>
		</layer>
		<layer id="201" name="/ptb_8/Constant_6" type="Const" version="opset1">
			<data element_type="i64" shape="" offset="388" size="8" />
			<output>
				<port id="0" precision="I64" names="/ptb_8/Constant_6_output_0" />
			</output>
		</layer>
		<layer id="202" name="Constant_4296" type="Const" version="opset1">
			<data element_type="i64" shape="" offset="388" size="8" />
			<output>
				<port id="0" precision="I64" />
			</output>
		</layer>
		<layer id="203" name="/ptb_8/Gather" type="Gather" version="opset8">
			<data batch_dims="0" />
			<input>
				<port id="0" precision="I64">
					<dim>3</dim>
				</port>
				<port id="1" precision="I64" />
				<port id="2" precision="I64" />
			</input>
			<output>
				<port id="3" precision="I64" names="/ptb_8/Cast_1_output_0,/ptb_8/Cast_output_0,/ptb_8/Gather_output_0" />
			</output>
		</layer>
		<layer id="204" name="/ptb_8/Constant_8" type="Const" version="opset1">
			<data element_type="i64" shape="" offset="404" size="8" />
			<output>
				<port id="0" precision="I64" names="/ptb_8/Constant_8_output_0" />
			</output>
		</layer>
		<layer id="205" name="/ptb_8/Range" type="Range" version="opset4">
			<data output_type="i64" />
			<input>
				<port id="0" precision="I64" />
				<port id="1" precision="I64" />
				<port id="2" precision="I64" />
			</input>
			<output>
				<port id="3" precision="I64" names="/ptb_8/Range_1_output_0,/ptb_8/Range_output_0">
					<dim>1</dim>
				</port>
			</output>
		</layer>
		<layer id="206" name="/ptb_8/Constant_9" type="Const" version="opset1">
			<data element_type="i64" shape="3" offset="448" size="24" />
			<rt_info>
				<attribute name="precise" version="0" />
			</rt_info>
			<output>
				<port id="0" precision="I64" names="/ptb_8/Constant_9_output_0">
					<dim>3</dim>
				</port>
			</output>
		</layer>
		<layer id="207" name="/ptb_8/Reshape" type="Reshape" version="opset1">
			<data special_zero="true" />
			<input>
				<port id="0" precision="I64">
					<dim>1</dim>
				</port>
				<port id="1" precision="I64">
					<dim>3</dim>
				</port>
			</input>
			<output>
				<port id="2" precision="I64" names="/ptb_8/Reshape_3_output_0,/ptb_8/Reshape_output_0">
					<dim>1</dim>
					<dim>1</dim>
					<dim>1</dim>
				</port>
			</output>
		</layer>
		<layer id="208" name="/ptb_1/Constant_10" type="Const" version="opset1">
			<data element_type="i64" shape="1" offset="404" size="8" />
			<rt_info>
				<attribute name="precise" version="0" />
			</rt_info>
			<output>
				<port id="0" precision="I64" names="/ptb_1/Constant_10_output_0">
					<dim>1</dim>
				</port>
			</output>
		</layer>
		<layer id="209" name="Constant_953" type="Const" version="opset1">
			<data element_type="i64" shape="" offset="388" size="8" />
			<rt_info>
				<attribute name="precise" version="0" />
			</rt_info>
			<output>
				<port id="0" precision="I64" />
			</output>
		</layer>
		<layer id="210" name="/ptb_1/Gather_1" type="Gather" version="opset8">
			<data batch_dims="0" />
			<input>
				<port id="0" precision="I64">
					<dim>3</dim>
				</port>
				<port id="1" precision="I64">
					<dim>1</dim>
				</port>
				<port id="2" precision="I64" />
			</input>
			<output>
				<port id="3" precision="I64" names="/ptb_1/Gather_1_output_0,/ptb_8/Gather_1_output_0,/tub_8/Gather_1_output_0,/tub_8/Unsqueeze_2_output_0">
					<dim>1</dim>
				</port>
			</output>
		</layer>
		<layer id="211" name="/ptb_8/Mul" type="Multiply" version="opset1">
			<data auto_broadcast="numpy" />
			<input>
				<port id="0" precision="I64">
					<dim>1</dim>
					<dim>1</dim>
					<dim>1</dim>
				</port>
				<port id="1" precision="I64">
					<dim>1</dim>
				</port>
			</input>
			<output>
				<port id="2" precision="I64" names="/ptb_8/Mul_output_0">
					<dim>1</dim>
					<dim>1</dim>
					<dim>1</dim>
				</port>
			</output>
		</layer>
		<layer id="212" name="/ptb_8/Add" type="Add" version="opset1">
			<data auto_broadcast="numpy" />
			<input>
				<port id="0" precision="I64">
					<dim>1</dim>
					<dim>-1</dim>
					<dim>4</dim>
				</port>
				<port id="1" precision="I64">
					<dim>1</dim>
					<dim>1</dim>
					<dim>1</dim>
				</port>
			</input>
			<output>
				<port id="2" precision="I64" names="/ptb_8/Add_output_0">
					<dim>1</dim>
					<dim>-1</dim>
					<dim>4</dim>
				</port>
			</output>
		</layer>
		<layer id="213" name="Constant_4351" type="Const" version="opset1">
			<data element_type="i64" shape="" offset="388" size="8" />
			<output>
				<port id="0" precision="I64" />
			</output>
		</layer>
		<layer id="214" name="/ptb_8/Gather_3" type="Gather" version="opset8">
			<data batch_dims="0" />
			<input>
				<port id="0" precision="FP32">
					<dim>-1</dim>
					<dim>-1</dim>
				</port>
				<port id="1" precision="I64">
					<dim>1</dim>
					<dim>-1</dim>
					<dim>4</dim>
				</port>
				<port id="2" precision="I64" />
			</input>
			<output>
				<port id="3" precision="FP32" names="/ptb_8/Gather_3_output_0">
					<dim>1</dim>
					<dim>-1</dim>
					<dim>4</dim>
					<dim>-1</dim>
				</port>
			</output>
		</layer>
		<layer id="215" name="Constant_24660" type="Const" version="opset1">
			<data element_type="i64" shape="2" offset="6762" size="16" />
			<rt_info>
				<attribute name="precise" version="0" />
			</rt_info>
			<output>
				<port id="0" precision="I64">
					<dim>2</dim>
				</port>
			</output>
		</layer>
		<layer id="216" name="/ptb_8/Reshape_1" type="Reshape" version="opset1">
			<data special_zero="true" />
			<input>
				<port id="0" precision="FP32">
					<dim>1</dim>
					<dim>-1</dim>
					<dim>4</dim>
					<dim>-1</dim>
				</port>
				<port id="1" precision="I64">
					<dim>2</dim>
				</port>
			</input>
			<output>
				<port id="2" precision="FP32" names="/ptb_8/Reshape_1_output_0">
					<dim>-1</dim>
					<dim>3</dim>
				</port>
			</output>
		</layer>
		<layer id="217" name="Constant_24661" type="Const" version="opset1">
			<data element_type="i64" shape="4" offset="6778" size="32" />
			<rt_info>
				<attribute name="precise" version="0" />
			</rt_info>
			<output>
				<port id="0" precision="I64">
					<dim>4</dim>
				</port>
			</output>
		</layer>
		<layer id="218" name="/ptb_8/Reshape_2" type="Reshape" version="opset1">
			<data special_zero="true" />
			<input>
				<port id="0" precision="FP32">
					<dim>-1</dim>
					<dim>3</dim>
				</port>
				<port id="1" precision="I64">
					<dim>4</dim>
				</port>
			</input>
			<output>
				<port id="2" precision="FP32" names="/ptb_8/Reshape_2_output_0">
					<dim>1</dim>
					<dim>-1</dim>
					<dim>4</dim>
					<dim>3</dim>
				</port>
			</output>
		</layer>
		<layer id="219" name="/ptb_8/gva/delta_mult/Sub" type="Subtract" version="opset1">
			<data auto_broadcast="numpy" />
			<input>
				<port id="0" precision="FP32">
					<dim>1</dim>
					<dim>-1</dim>
					<dim>1</dim>
					<dim>3</dim>
				</port>
				<port id="1" precision="FP32">
					<dim>1</dim>
					<dim>-1</dim>
					<dim>4</dim>
					<dim>3</dim>
				</port>
			</input>
			<output>
				<port id="2" precision="FP32" names="/ptb_8/gva/delta_mult/Sub_output_0">
					<dim>1</dim>
					<dim>-1</dim>
					<dim>4</dim>
					<dim>3</dim>
				</port>
			</output>
		</layer>
		<layer id="220" name="Transpose_19139_compressed" type="Const" version="opset1">
			<data element_type="f16" shape="96, 3" offset="6810" size="576" />
			<output>
				<port id="0" precision="FP16">
					<dim>96</dim>
					<dim>3</dim>
				</port>
			</output>
		</layer>
		<layer id="221" name="Transpose_19139" type="Convert" version="opset1">
			<data destination_type="f32" />
			<rt_info>
				<attribute name="decompression" version="0" />
			</rt_info>
			<input>
				<port id="0" precision="FP16">
					<dim>96</dim>
					<dim>3</dim>
				</port>
			</input>
			<output>
				<port id="1" precision="FP32">
					<dim>96</dim>
					<dim>3</dim>
				</port>
			</output>
		</layer>
		<layer id="222" name="/ptb_8/gva/delta_mult/linear_1/MatMul" type="MatMul" version="opset1">
			<data transpose_a="false" transpose_b="true" />
			<input>
				<port id="0" precision="FP32">
					<dim>1</dim>
					<dim>-1</dim>
					<dim>4</dim>
					<dim>3</dim>
				</port>
				<port id="1" precision="FP32">
					<dim>96</dim>
					<dim>3</dim>
				</port>
			</input>
			<output>
				<port id="2" precision="FP32" names="/ptb_8/gva/delta_mult/linear_1/MatMul_output_0">
					<dim>1</dim>
					<dim>-1</dim>
					<dim>4</dim>
					<dim>96</dim>
				</port>
			</output>
		</layer>
		<layer id="223" name="/ptb_8/gva/delta_mult/linear_1/Add" type="Add" version="opset1">
			<data auto_broadcast="numpy" />
			<input>
				<port id="0" precision="FP32">
					<dim>1</dim>
					<dim>1</dim>
					<dim>1</dim>
					<dim>96</dim>
				</port>
				<port id="1" precision="FP32">
					<dim>1</dim>
					<dim>-1</dim>
					<dim>4</dim>
					<dim>96</dim>
				</port>
			</input>
			<output>
				<port id="2" precision="FP32" names="/ptb_8/gva/delta_mult/linear_1/Add_output_0">
					<dim>1</dim>
					<dim>-1</dim>
					<dim>4</dim>
					<dim>96</dim>
				</port>
			</output>
		</layer>
		<layer id="224" name="Constant_4433" type="Const" version="opset1">
			<data element_type="i64" shape="4" offset="760" size="32" />
			<output>
				<port id="0" precision="I64">
					<dim>4</dim>
				</port>
			</output>
		</layer>
		<layer id="225" name="/ptb_8/gva/delta_mult/Transpose" type="Transpose" version="opset1">
			<input>
				<port id="0" precision="FP32">
					<dim>1</dim>
					<dim>-1</dim>
					<dim>4</dim>
					<dim>96</dim>
				</port>
				<port id="1" precision="I64">
					<dim>4</dim>
				</port>
			</input>
			<output>
				<port id="2" precision="FP32" names="/ptb_8/gva/delta_mult/Transpose_output_0">
					<dim>1</dim>
					<dim>96</dim>
					<dim>-1</dim>
					<dim>4</dim>
				</port>
			</output>
		</layer>
		<layer id="226" name="Constant_20239_compressed" type="Const" version="opset1">
			<data element_type="f16" shape="1, 96, 1, 1" offset="7386" size="192" />
			<output>
				<port id="0" precision="FP16">
					<dim>1</dim>
					<dim>96</dim>
					<dim>1</dim>
					<dim>1</dim>
				</port>
			</output>
		</layer>
		<layer id="227" name="Constant_20239" type="Convert" version="opset1">
			<data destination_type="f32" />
			<rt_info>
				<attribute name="decompression" version="0" />
			</rt_info>
			<input>
				<port id="0" precision="FP16">
					<dim>1</dim>
					<dim>96</dim>
					<dim>1</dim>
					<dim>1</dim>
				</port>
			</input>
			<output>
				<port id="1" precision="FP32">
					<dim>1</dim>
					<dim>96</dim>
					<dim>1</dim>
					<dim>1</dim>
				</port>
			</output>
		</layer>
		<layer id="228" name="Multiply_22556" type="Multiply" version="opset1">
			<data auto_broadcast="numpy" />
			<input>
				<port id="0" precision="FP32">
					<dim>1</dim>
					<dim>96</dim>
					<dim>-1</dim>
					<dim>4</dim>
				</port>
				<port id="1" precision="FP32">
					<dim>1</dim>
					<dim>96</dim>
					<dim>1</dim>
					<dim>1</dim>
				</port>
			</input>
			<output>
				<port id="2" precision="FP32">
					<dim>1</dim>
					<dim>96</dim>
					<dim>-1</dim>
					<dim>4</dim>
				</port>
			</output>
		</layer>
		<layer id="229" name="Constant_22561_compressed" type="Const" version="opset1">
			<data element_type="f16" shape="1, 96, 1, 1" offset="7578" size="192" />
			<output>
				<port id="0" precision="FP16">
					<dim>1</dim>
					<dim>96</dim>
					<dim>1</dim>
					<dim>1</dim>
				</port>
			</output>
		</layer>
		<layer id="230" name="Constant_22561" type="Convert" version="opset1">
			<data destination_type="f32" />
			<rt_info>
				<attribute name="decompression" version="0" />
			</rt_info>
			<input>
				<port id="0" precision="FP16">
					<dim>1</dim>
					<dim>96</dim>
					<dim>1</dim>
					<dim>1</dim>
				</port>
			</input>
			<output>
				<port id="1" precision="FP32">
					<dim>1</dim>
					<dim>96</dim>
					<dim>1</dim>
					<dim>1</dim>
				</port>
			</output>
		</layer>
		<layer id="231" name="/ptb_8/gva/delta_mult/batch_norm/BatchNormalization" type="Add" version="opset1">
			<data auto_broadcast="numpy" />
			<input>
				<port id="0" precision="FP32">
					<dim>1</dim>
					<dim>96</dim>
					<dim>-1</dim>
					<dim>4</dim>
				</port>
				<port id="1" precision="FP32">
					<dim>1</dim>
					<dim>96</dim>
					<dim>1</dim>
					<dim>1</dim>
				</port>
			</input>
			<output>
				<port id="2" precision="FP32" names="/ptb_8/gva/delta_mult/batch_norm/BatchNormalization_output_0">
					<dim>1</dim>
					<dim>96</dim>
					<dim>-1</dim>
					<dim>4</dim>
				</port>
			</output>
		</layer>
		<layer id="232" name="Constant_4436" type="Const" version="opset1">
			<data element_type="i64" shape="4" offset="984" size="32" />
			<output>
				<port id="0" precision="I64">
					<dim>4</dim>
				</port>
			</output>
		</layer>
		<layer id="233" name="/ptb_8/gva/delta_mult/Transpose_1" type="Transpose" version="opset1">
			<input>
				<port id="0" precision="FP32">
					<dim>1</dim>
					<dim>96</dim>
					<dim>-1</dim>
					<dim>4</dim>
				</port>
				<port id="1" precision="I64">
					<dim>4</dim>
				</port>
			</input>
			<output>
				<port id="2" precision="FP32" names="/ptb_8/gva/delta_mult/Transpose_1_output_0">
					<dim>1</dim>
					<dim>-1</dim>
					<dim>4</dim>
					<dim>96</dim>
				</port>
			</output>
		</layer>
		<layer id="234" name="/ptb_8/gva/delta_mult/relu/Relu" type="ReLU" version="opset1">
			<input>
				<port id="0" precision="FP32">
					<dim>1</dim>
					<dim>-1</dim>
					<dim>4</dim>
					<dim>96</dim>
				</port>
			</input>
			<output>
				<port id="1" precision="FP32" names="/ptb_8/gva/delta_mult/relu/Relu_output_0">
					<dim>1</dim>
					<dim>-1</dim>
					<dim>4</dim>
					<dim>96</dim>
				</port>
			</output>
		</layer>
		<layer id="235" name="Transpose_19146_compressed" type="Const" version="opset1">
			<data element_type="f16" shape="96, 96" offset="7770" size="18432" />
			<output>
				<port id="0" precision="FP16">
					<dim>96</dim>
					<dim>96</dim>
				</port>
			</output>
		</layer>
		<layer id="236" name="Transpose_19146" type="Convert" version="opset1">
			<data destination_type="f32" />
			<rt_info>
				<attribute name="decompression" version="0" />
			</rt_info>
			<input>
				<port id="0" precision="FP16">
					<dim>96</dim>
					<dim>96</dim>
				</port>
			</input>
			<output>
				<port id="1" precision="FP32">
					<dim>96</dim>
					<dim>96</dim>
				</port>
			</output>
		</layer>
		<layer id="237" name="/ptb_8/gva/delta_mult/linear_2/MatMul" type="MatMul" version="opset1">
			<data transpose_a="false" transpose_b="true" />
			<input>
				<port id="0" precision="FP32">
					<dim>1</dim>
					<dim>-1</dim>
					<dim>4</dim>
					<dim>96</dim>
				</port>
				<port id="1" precision="FP32">
					<dim>96</dim>
					<dim>96</dim>
				</port>
			</input>
			<output>
				<port id="2" precision="FP32" names="/ptb_8/gva/delta_mult/linear_2/MatMul_output_0">
					<dim>1</dim>
					<dim>-1</dim>
					<dim>4</dim>
					<dim>96</dim>
				</port>
			</output>
		</layer>
		<layer id="238" name="/ptb_8/gva/delta_mult/linear_2/Add" type="Add" version="opset1">
			<data auto_broadcast="numpy" />
			<input>
				<port id="0" precision="FP32">
					<dim>1</dim>
					<dim>1</dim>
					<dim>1</dim>
					<dim>96</dim>
				</port>
				<port id="1" precision="FP32">
					<dim>1</dim>
					<dim>-1</dim>
					<dim>4</dim>
					<dim>96</dim>
				</port>
			</input>
			<output>
				<port id="2" precision="FP32" names="/ptb_8/gva/delta_mult/linear_2/Add_output_0">
					<dim>1</dim>
					<dim>-1</dim>
					<dim>4</dim>
					<dim>96</dim>
				</port>
			</output>
		</layer>
		<layer id="239" name="Constant_23503_compressed" type="Const" version="opset1">
			<data element_type="f16" shape="1, 1, 1, 96" offset="26202" size="192" />
			<output>
				<port id="0" precision="FP16">
					<dim>1</dim>
					<dim>1</dim>
					<dim>1</dim>
					<dim>96</dim>
				</port>
			</output>
		</layer>
		<layer id="240" name="Constant_23503" type="Convert" version="opset1">
			<data destination_type="f32" />
			<rt_info>
				<attribute name="decompression" version="0" />
			</rt_info>
			<input>
				<port id="0" precision="FP16">
					<dim>1</dim>
					<dim>1</dim>
					<dim>1</dim>
					<dim>96</dim>
				</port>
			</input>
			<output>
				<port id="1" precision="FP32">
					<dim>1</dim>
					<dim>1</dim>
					<dim>1</dim>
					<dim>96</dim>
				</port>
			</output>
		</layer>
		<layer id="241" name="Constant_23502_compressed" type="Const" version="opset1">
			<data element_type="f16" shape="1, 1, 96" offset="26394" size="192" />
			<output>
				<port id="0" precision="FP16">
					<dim>1</dim>
					<dim>1</dim>
					<dim>96</dim>
				</port>
			</output>
		</layer>
		<layer id="242" name="Constant_23502" type="Convert" version="opset1">
			<data destination_type="f32" />
			<rt_info>
				<attribute name="decompression" version="0" />
			</rt_info>
			<input>
				<port id="0" precision="FP16">
					<dim>1</dim>
					<dim>1</dim>
					<dim>96</dim>
				</port>
			</input>
			<output>
				<port id="1" precision="FP32">
					<dim>1</dim>
					<dim>1</dim>
					<dim>96</dim>
				</port>
			</output>
		</layer>
		<layer id="243" name="Constant_23495_compressed" type="Const" version="opset1">
			<data element_type="f16" shape="1, 1, 96" offset="26586" size="192" />
			<output>
				<port id="0" precision="FP16">
					<dim>1</dim>
					<dim>1</dim>
					<dim>96</dim>
				</port>
			</output>
		</layer>
		<layer id="244" name="Constant_23495" type="Convert" version="opset1">
			<data destination_type="f32" />
			<rt_info>
				<attribute name="decompression" version="0" />
			</rt_info>
			<input>
				<port id="0" precision="FP16">
					<dim>1</dim>
					<dim>1</dim>
					<dim>96</dim>
				</port>
			</input>
			<output>
				<port id="1" precision="FP32">
					<dim>1</dim>
					<dim>1</dim>
					<dim>96</dim>
				</port>
			</output>
		</layer>
		<layer id="245" name="Constant_23494_compressed" type="Const" version="opset1">
			<data element_type="f16" shape="1, 1, 192" offset="26778" size="384" />
			<output>
				<port id="0" precision="FP16">
					<dim>1</dim>
					<dim>1</dim>
					<dim>192</dim>
				</port>
			</output>
		</layer>
		<layer id="246" name="Constant_23494" type="Convert" version="opset1">
			<data destination_type="f32" />
			<rt_info>
				<attribute name="decompression" version="0" />
			</rt_info>
			<input>
				<port id="0" precision="FP16">
					<dim>1</dim>
					<dim>1</dim>
					<dim>192</dim>
				</port>
			</input>
			<output>
				<port id="1" precision="FP32">
					<dim>1</dim>
					<dim>1</dim>
					<dim>192</dim>
				</port>
			</output>
		</layer>
		<layer id="247" name="Constant_23493_compressed" type="Const" version="opset1">
			<data element_type="f16" shape="1, 1, 192" offset="27162" size="384" />
			<output>
				<port id="0" precision="FP16">
					<dim>1</dim>
					<dim>1</dim>
					<dim>192</dim>
				</port>
			</output>
		</layer>
		<layer id="248" name="Constant_23493" type="Convert" version="opset1">
			<data destination_type="f32" />
			<rt_info>
				<attribute name="decompression" version="0" />
			</rt_info>
			<input>
				<port id="0" precision="FP16">
					<dim>1</dim>
					<dim>1</dim>
					<dim>192</dim>
				</port>
			</input>
			<output>
				<port id="1" precision="FP32">
					<dim>1</dim>
					<dim>1</dim>
					<dim>192</dim>
				</port>
			</output>
		</layer>
		<layer id="249" name="Constant_23398_compressed" type="Const" version="opset1">
			<data element_type="f16" shape="1, 1, 1, 192" offset="27546" size="384" />
			<output>
				<port id="0" precision="FP16">
					<dim>1</dim>
					<dim>1</dim>
					<dim>1</dim>
					<dim>192</dim>
				</port>
			</output>
		</layer>
		<layer id="250" name="Constant_23398" type="Convert" version="opset1">
			<data destination_type="f32" />
			<rt_info>
				<attribute name="decompression" version="0" />
			</rt_info>
			<input>
				<port id="0" precision="FP16">
					<dim>1</dim>
					<dim>1</dim>
					<dim>1</dim>
					<dim>192</dim>
				</port>
			</input>
			<output>
				<port id="1" precision="FP32">
					<dim>1</dim>
					<dim>1</dim>
					<dim>1</dim>
					<dim>192</dim>
				</port>
			</output>
		</layer>
		<layer id="251" name="Constant_23397_compressed" type="Const" version="opset1">
			<data element_type="f16" shape="1, 1, 1, 192" offset="27930" size="384" />
			<output>
				<port id="0" precision="FP16">
					<dim>1</dim>
					<dim>1</dim>
					<dim>1</dim>
					<dim>192</dim>
				</port>
			</output>
		</layer>
		<layer id="252" name="Constant_23397" type="Convert" version="opset1">
			<data destination_type="f32" />
			<rt_info>
				<attribute name="decompression" version="0" />
			</rt_info>
			<input>
				<port id="0" precision="FP16">
					<dim>1</dim>
					<dim>1</dim>
					<dim>1</dim>
					<dim>192</dim>
				</port>
			</input>
			<output>
				<port id="1" precision="FP32">
					<dim>1</dim>
					<dim>1</dim>
					<dim>1</dim>
					<dim>192</dim>
				</port>
			</output>
		</layer>
		<layer id="253" name="Constant_1388_compressed" type="Const" version="opset1">
			<data element_type="f16" shape="" offset="6680" size="2" />
			<output>
				<port id="0" precision="FP16" />
			</output>
		</layer>
		<layer id="254" name="Constant_1388" type="Convert" version="opset1">
			<data destination_type="f32" />
			<rt_info>
				<attribute name="decompression" version="0" />
			</rt_info>
			<input>
				<port id="0" precision="FP16" />
			</input>
			<output>
				<port id="1" precision="FP32" />
			</output>
		</layer>
		<layer id="255" name="Constant_1216" type="Const" version="opset1">
			<data element_type="i64" shape="" offset="388" size="8" />
			<output>
				<port id="0" precision="I64" />
			</output>
		</layer>
		<layer id="256" name="/tdb_2/Gather" type="Gather" version="opset8">
			<data batch_dims="0" />
			<input>
				<port id="0" precision="FP32">
					<dim>1</dim>
					<dim>-1</dim>
					<dim>3</dim>
				</port>
				<port id="1" precision="I64" />
				<port id="2" precision="I64" />
			</input>
			<output>
				<port id="3" precision="FP32" names="/tdb_2/Gather_output_0">
					<dim>-1</dim>
					<dim>3</dim>
				</port>
			</output>
		</layer>
		<layer id="257" name="Constant_23393_compressed" type="Const" version="opset1">
			<data element_type="f16" shape="1, 3" offset="28314" size="6" />
			<output>
				<port id="0" precision="FP16">
					<dim>1</dim>
					<dim>3</dim>
				</port>
			</output>
		</layer>
		<layer id="258" name="Constant_23393" type="Convert" version="opset1">
			<data destination_type="f32" />
			<rt_info>
				<attribute name="decompression" version="0" />
			</rt_info>
			<input>
				<port id="0" precision="FP16">
					<dim>1</dim>
					<dim>3</dim>
				</port>
			</input>
			<output>
				<port id="1" precision="FP32">
					<dim>1</dim>
					<dim>3</dim>
				</port>
			</output>
		</layer>
		<layer id="259" name="/tdb_2/Div" type="Multiply" version="opset1">
			<data auto_broadcast="numpy" />
			<input>
				<port id="0" precision="FP32">
					<dim>-1</dim>
					<dim>3</dim>
				</port>
				<port id="1" precision="FP32">
					<dim>1</dim>
					<dim>3</dim>
				</port>
			</input>
			<output>
				<port id="2" precision="FP32" names="/tdb_2/Div_output_0">
					<dim>-1</dim>
					<dim>3</dim>
				</port>
			</output>
		</layer>
		<layer id="260" name="/tdb_2/Floor" type="Floor" version="opset1">
			<input>
				<port id="0" precision="FP32">
					<dim>-1</dim>
					<dim>3</dim>
				</port>
			</input>
			<output>
				<port id="1" precision="FP32" names="/tdb_2/Floor_output_0">
					<dim>-1</dim>
					<dim>3</dim>
				</port>
			</output>
		</layer>
		<layer id="261" name="/tdb_2/Cast" type="Convert" version="opset1">
			<data destination_type="i64" />
			<input>
				<port id="0" precision="FP32">
					<dim>-1</dim>
					<dim>3</dim>
				</port>
			</input>
			<output>
				<port id="1" precision="I64" names="/tdb_2/Cast_output_0">
					<dim>-1</dim>
					<dim>3</dim>
				</port>
			</output>
		</layer>
		<layer id="262" name="Constant_1226" type="Const" version="opset1">
			<data element_type="i64" shape="" offset="404" size="8" />
			<output>
				<port id="0" precision="I64" />
			</output>
		</layer>
		<layer id="263" name="/tdb_2/Gather_1" type="Gather" version="opset8">
			<data batch_dims="0" />
			<input>
				<port id="0" precision="I64">
					<dim>-1</dim>
					<dim>3</dim>
				</port>
				<port id="1" precision="I64" />
				<port id="2" precision="I64" />
			</input>
			<output>
				<port id="3" precision="I64" names="/tdb_2/Gather_1_output_0">
					<dim>-1</dim>
				</port>
			</output>
		</layer>
		<layer id="264" name="Constant_1228" type="Const" version="opset1">
			<data element_type="i64" shape="" offset="404" size="8" />
			<output>
				<port id="0" precision="I64" />
			</output>
		</layer>
		<layer id="265" name="/tdb_2/Gather_2" type="Gather" version="opset8">
			<data batch_dims="0" />
			<input>
				<port id="0" precision="I64">
					<dim>-1</dim>
					<dim>3</dim>
				</port>
				<port id="1" precision="I64" />
				<port id="2" precision="I64" />
			</input>
			<output>
				<port id="3" precision="I64" names="/tdb_2/Gather_2_output_0">
					<dim>-1</dim>
				</port>
			</output>
		</layer>
		<layer id="266" name="Constant_1222" type="Const" version="opset1">
			<data element_type="i64" shape="1" offset="388" size="8" />
			<output>
				<port id="0" precision="I64">
					<dim>1</dim>
				</port>
			</output>
		</layer>
		<layer id="267" name="/tdb_2/ReduceMax" type="ReduceMax" version="opset1">
			<data keep_dims="false" />
			<input>
				<port id="0" precision="I64">
					<dim>-1</dim>
					<dim>3</dim>
				</port>
				<port id="1" precision="I64">
					<dim>1</dim>
				</port>
			</input>
			<output>
				<port id="2" precision="I64" names="/tdb_2/ReduceMax_output_0">
					<dim>3</dim>
				</port>
			</output>
		</layer>
		<layer id="268" name="Constant_23394" type="Const" version="opset1">
			<data element_type="i64" shape="1" offset="404" size="8" />
			<output>
				<port id="0" precision="I64">
					<dim>1</dim>
				</port>
			</output>
		</layer>
		<layer id="269" name="/tdb_2/Add" type="Add" version="opset1">
			<data auto_broadcast="numpy" />
			<input>
				<port id="0" precision="I64">
					<dim>3</dim>
				</port>
				<port id="1" precision="I64">
					<dim>1</dim>
				</port>
			</input>
			<output>
				<port id="2" precision="I64" names="/tdb_2/Add_output_0">
					<dim>3</dim>
				</port>
			</output>
		</layer>
		<layer id="270" name="Constant_1230" type="Const" version="opset1">
			<data element_type="i64" shape="" offset="388" size="8" />
			<output>
				<port id="0" precision="I64" />
			</output>
		</layer>
		<layer id="271" name="/tdb_2/Gather_3" type="Gather" version="opset8">
			<data batch_dims="0" />
			<input>
				<port id="0" precision="I64">
					<dim>3</dim>
				</port>
				<port id="1" precision="I64" />
				<port id="2" precision="I64" />
			</input>
			<output>
				<port id="3" precision="I64" names="/tdb_2/Gather_3_output_0" />
			</output>
		</layer>
		<layer id="272" name="/tdb_2/Mul" type="Multiply" version="opset1">
			<data auto_broadcast="numpy" />
			<input>
				<port id="0" precision="I64">
					<dim>-1</dim>
				</port>
				<port id="1" precision="I64" />
			</input>
			<output>
				<port id="2" precision="I64" names="/tdb_2/Mul_output_0">
					<dim>-1</dim>
				</port>
			</output>
		</layer>
		<layer id="273" name="/tdb_2/Add_1" type="Add" version="opset1">
			<data auto_broadcast="numpy" />
			<input>
				<port id="0" precision="I64">
					<dim>-1</dim>
				</port>
				<port id="1" precision="I64">
					<dim>-1</dim>
				</port>
			</input>
			<output>
				<port id="2" precision="I64" names="/tdb_2/Add_1_output_0">
					<dim>-1</dim>
				</port>
			</output>
		</layer>
		<layer id="274" name="Constant_1234" type="Const" version="opset1">
			<data element_type="i64" shape="" offset="404" size="8" />
			<output>
				<port id="0" precision="I64" />
			</output>
		</layer>
		<layer id="275" name="/tdb_2/Gather_4" type="Gather" version="opset8">
			<data batch_dims="0" />
			<input>
				<port id="0" precision="I64">
					<dim>-1</dim>
					<dim>3</dim>
				</port>
				<port id="1" precision="I64" />
				<port id="2" precision="I64" />
			</input>
			<output>
				<port id="3" precision="I64" names="/tdb_2/Gather_4_output_0">
					<dim>-1</dim>
				</port>
			</output>
		</layer>
		<layer id="276" name="/tdb_2/Mul_1" type="Multiply" version="opset1">
			<data auto_broadcast="numpy" />
			<input>
				<port id="0" precision="I64">
					<dim>-1</dim>
				</port>
				<port id="1" precision="I64" />
			</input>
			<output>
				<port id="2" precision="I64" names="/tdb_2/Mul_1_output_0">
					<dim>-1</dim>
				</port>
			</output>
		</layer>
		<layer id="277" name="Constant_1237" type="Const" version="opset1">
			<data element_type="i64" shape="" offset="388" size="8" />
			<output>
				<port id="0" precision="I64" />
			</output>
		</layer>
		<layer id="278" name="/tdb_2/Gather_5" type="Gather" version="opset8">
			<data batch_dims="0" />
			<input>
				<port id="0" precision="I64">
					<dim>3</dim>
				</port>
				<port id="1" precision="I64" />
				<port id="2" precision="I64" />
			</input>
			<output>
				<port id="3" precision="I64" names="/tdb_2/Gather_5_output_0" />
			</output>
		</layer>
		<layer id="279" name="/tdb_2/Mul_2" type="Multiply" version="opset1">
			<data auto_broadcast="numpy" />
			<input>
				<port id="0" precision="I64">
					<dim>-1</dim>
				</port>
				<port id="1" precision="I64" />
			</input>
			<output>
				<port id="2" precision="I64" names="/tdb_2/Mul_2_output_0">
					<dim>-1</dim>
				</port>
			</output>
		</layer>
		<layer id="280" name="/tdb_2/Add_2" type="Add" version="opset1">
			<data auto_broadcast="numpy" />
			<input>
				<port id="0" precision="I64">
					<dim>-1</dim>
				</port>
				<port id="1" precision="I64">
					<dim>-1</dim>
				</port>
			</input>
			<output>
				<port id="2" precision="I64" names="/tdb_2/Add_2_output_0">
					<dim>-1</dim>
				</port>
			</output>
		</layer>
		<layer id="281" name="/tdb_2/Unique" type="Unique" version="opset10">
			<data sorted="true" index_element_type="i64" count_element_type="i64" />
			<input>
				<port id="0" precision="I64">
					<dim>-1</dim>
				</port>
			</input>
			<output>
				<port id="1" precision="I64" names="/tdb_2/Unique_output_0">
					<dim>-1</dim>
				</port>
				<port id="2" precision="I64" names="/tdb_2/Unique_output_1">
					<dim>-1</dim>
				</port>
				<port id="3" precision="I64" names="/tdb_2/Unique_output_2">
					<dim>-1</dim>
				</port>
				<port id="4" precision="I64" names="/tdb_2/Unique_output_3">
					<dim>-1</dim>
				</port>
			</output>
		</layer>
		<layer id="282" name="/tdb_2/Shape" type="ShapeOf" version="opset3">
			<data output_type="i64" />
			<input>
				<port id="0" precision="I64">
					<dim>-1</dim>
				</port>
			</input>
			<output>
				<port id="1" precision="I64" names="/tdb_2/Concat_3_output_0,/tdb_2/Gather_6_output_0,/tdb_2/Gather_9_output_0,/tdb_2/Shape_output_0,/tdb_2/Unsqueeze_4_output_0,/tdb_2/Unsqueeze_5_output_0,/tdb_2/Unsqueeze_7_output_0,/tdb_2/Unsqueeze_8_output_0,/tdb_2/Unsqueeze_output_0">
					<dim>1</dim>
				</port>
			</output>
		</layer>
		<layer id="283" name="/tdb_2/Constant_11" type="Const" version="opset1">
			<data element_type="i64" shape="1" offset="396" size="8" />
			<rt_info>
				<attribute name="precise" version="0" />
			</rt_info>
			<output>
				<port id="0" precision="I64" names="/tdb_2/Constant_11_output_0">
					<dim>1</dim>
				</port>
			</output>
		</layer>
		<layer id="284" name="/tdb_2/Concat_2" type="Concat" version="opset1">
			<data axis="0" />
			<input>
				<port id="0" precision="I64">
					<dim>1</dim>
				</port>
				<port id="1" precision="I64">
					<dim>1</dim>
				</port>
			</input>
			<output>
				<port id="2" precision="I64" names="/tdb_2/Concat_2_output_0">
					<dim>2</dim>
				</port>
			</output>
		</layer>
		<layer id="285" name="/tdb_2/ConstantOfShape_3" type="Broadcast" version="opset3">
			<data mode="numpy" />
			<input>
				<port id="0" precision="FP32" />
				<port id="1" precision="I64">
					<dim>2</dim>
				</port>
			</input>
			<output>
				<port id="2" precision="FP32" names="/tdb_2/ConstantOfShape_3_output_0">
					<dim>-1</dim>
					<dim>3</dim>
				</port>
			</output>
		</layer>
		<layer id="286" name="/tdb_2/Constant_4" type="Const" version="opset1">
			<data element_type="i64" shape="1" offset="404" size="8" />
			<output>
				<port id="0" precision="I64" names="/tdb_2/Constant_4_output_0">
					<dim>1</dim>
				</port>
			</output>
		</layer>
		<layer id="287" name="/tdb_2/Unsqueeze_2" type="Unsqueeze" version="opset1">
			<input>
				<port id="0" precision="I64">
					<dim>-1</dim>
				</port>
				<port id="1" precision="I64">
					<dim>1</dim>
				</port>
			</input>
			<output>
				<port id="2" precision="I64" names="/tdb_2/Unsqueeze_2_output_0">
					<dim>-1</dim>
					<dim>1</dim>
				</port>
			</output>
		</layer>
		<layer id="288" name="/tdb_2/Where_1" type="Const" version="opset1">
			<data element_type="i64" shape="2" offset="6688" size="16" />
			<rt_info>
				<attribute name="precise" version="0" />
			</rt_info>
			<output>
				<port id="0" precision="I64" names="/tdb_2/Where_1_output_0">
					<dim>2</dim>
				</port>
			</output>
		</layer>
		<layer id="289" name="/tdb_2/Expand_1" type="Broadcast" version="opset3">
			<data mode="bidirectional" />
			<input>
				<port id="0" precision="I64">
					<dim>-1</dim>
					<dim>1</dim>
				</port>
				<port id="1" precision="I64">
					<dim>2</dim>
				</port>
			</input>
			<output>
				<port id="2" precision="I64" names="/tdb_2/Expand_1_output_0">
					<dim>-1</dim>
					<dim>3</dim>
				</port>
			</output>
		</layer>
		<layer id="290" name="/tdb_2/Constant_16" type="Const" version="opset1">
			<data element_type="i64" shape="2" offset="6704" size="16" />
			<output>
				<port id="0" precision="I64" names="/tdb_2/Constant_16_output_0">
					<dim>2</dim>
				</port>
			</output>
		</layer>
		<layer id="291" name="/tdb_2/Shape_4" type="ShapeOf" version="opset3">
			<data output_type="i64" />
			<input>
				<port id="0" precision="I64">
					<dim>-1</dim>
					<dim>3</dim>
				</port>
			</input>
			<output>
				<port id="1" precision="I64" names="/tdb_2/Shape_4_output_0">
					<dim>2</dim>
				</port>
			</output>
		</layer>
		<layer id="292" name="Broadcast_1397" type="Const" version="opset1">
			<data element_type="i64" shape="2" offset="6720" size="16" />
			<output>
				<port id="0" precision="I64">
					<dim>2</dim>
				</port>
			</output>
		</layer>
		<layer id="293" name="Constant_1402" type="Const" version="opset1">
			<data element_type="i64" shape="2" offset="6736" size="16" />
			<output>
				<port id="0" precision="I64">
					<dim>2</dim>
				</port>
			</output>
		</layer>
		<layer id="294" name="/tdb_2/Slice" type="Slice" version="opset8">
			<input>
				<port id="0" precision="FP32">
					<dim>-1</dim>
					<dim>3</dim>
				</port>
				<port id="1" precision="I64">
					<dim>2</dim>
				</port>
				<port id="2" precision="I64">
					<dim>2</dim>
				</port>
				<port id="3" precision="I64">
					<dim>2</dim>
				</port>
				<port id="4" precision="I64">
					<dim>2</dim>
				</port>
			</input>
			<output>
				<port id="5" precision="FP32" names="/tdb_2/Slice_output_0">
					<dim>-1</dim>
					<dim>3</dim>
				</port>
			</output>
		</layer>
		<layer id="295" name="Constant_1406" type="Const" version="opset1">
			<data element_type="i64" shape="" offset="388" size="8" />
			<output>
				<port id="0" precision="I64" />
			</output>
		</layer>
		<layer id="296" name="/tdb_2/ScatterElements_1" type="ScatterElementsUpdate" version="opset12">
			<data reduction="sum" use_init_val="true" />
			<input>
				<port id="0" precision="FP32">
					<dim>-1</dim>
					<dim>3</dim>
				</port>
				<port id="1" precision="I64">
					<dim>-1</dim>
					<dim>3</dim>
				</port>
				<port id="2" precision="FP32">
					<dim>-1</dim>
					<dim>3</dim>
				</port>
				<port id="3" precision="I64" />
			</input>
			<output>
				<port id="4" precision="FP32" names="/tdb_2/ScatterElements_1_output_0">
					<dim>-1</dim>
					<dim>3</dim>
				</port>
			</output>
		</layer>
		<layer id="297" name="Constant_1419_compressed" type="Const" version="opset1">
			<data element_type="f16" shape="" offset="6680" size="2" />
			<output>
				<port id="0" precision="FP16" />
			</output>
		</layer>
		<layer id="298" name="Constant_1419" type="Convert" version="opset1">
			<data destination_type="f32" />
			<rt_info>
				<attribute name="decompression" version="0" />
			</rt_info>
			<input>
				<port id="0" precision="FP16" />
			</input>
			<output>
				<port id="1" precision="FP32" />
			</output>
		</layer>
		<layer id="299" name="/tdb_2/ConstantOfShape_5" type="Broadcast" version="opset3">
			<data mode="numpy" />
			<input>
				<port id="0" precision="FP32" />
				<port id="1" precision="I64">
					<dim>1</dim>
				</port>
			</input>
			<output>
				<port id="2" precision="FP32" names="/tdb_2/ConstantOfShape_5_output_0">
					<dim>-1</dim>
				</port>
			</output>
		</layer>
		<layer id="300" name="Constant_1413_compressed" type="Const" version="opset1">
			<data element_type="f16" shape="" offset="6752" size="2" />
			<output>
				<port id="0" precision="FP16" />
			</output>
		</layer>
		<layer id="301" name="Constant_1413" type="Convert" version="opset1">
			<data destination_type="f32" />
			<rt_info>
				<attribute name="decompression" version="0" />
			</rt_info>
			<input>
				<port id="0" precision="FP16" />
			</input>
			<output>
				<port id="1" precision="FP32" />
			</output>
		</layer>
		<layer id="302" name="Constant_24626" type="Const" version="opset1">
			<data element_type="i64" shape="1" offset="388" size="8" />
			<rt_info>
				<attribute name="precise" version="0" />
			</rt_info>
			<output>
				<port id="0" precision="I64">
					<dim>1</dim>
				</port>
			</output>
		</layer>
		<layer id="303" name="Constant_24627" type="Const" version="opset1">
			<data element_type="i64" shape="" offset="388" size="8" />
			<rt_info>
				<attribute name="precise" version="0" />
			</rt_info>
			<output>
				<port id="0" precision="I64" />
			</output>
		</layer>
		<layer id="304" name="Gather_24628" type="Gather" version="opset8">
			<data batch_dims="0" />
			<input>
				<port id="0" precision="I64">
					<dim>2</dim>
				</port>
				<port id="1" precision="I64">
					<dim>1</dim>
				</port>
				<port id="2" precision="I64" />
			</input>
			<output>
				<port id="3" precision="I64" names="/tdb_2/Shape_5_output_0,/tdb_2/Shape_6_output_0">
					<dim>1</dim>
				</port>
			</output>
		</layer>
		<layer id="305" name="/tdb_2/ConstantOfShape_4" type="Broadcast" version="opset3">
			<data mode="numpy" />
			<input>
				<port id="0" precision="FP32" />
				<port id="1" precision="I64">
					<dim>1</dim>
				</port>
			</input>
			<output>
				<port id="2" precision="FP32" names="/tdb_2/ConstantOfShape_4_output_0">
					<dim>-1</dim>
				</port>
			</output>
		</layer>
		<layer id="306" name="/tdb_2/Constant_17" type="Const" version="opset1">
			<data element_type="i64" shape="1" offset="388" size="8" />
			<output>
				<port id="0" precision="I64" names="/tdb_2/Constant_17_output_0">
					<dim>1</dim>
				</port>
			</output>
		</layer>
		<layer id="307" name="Broadcast_1428" type="Const" version="opset1">
			<data element_type="i64" shape="1" offset="404" size="8" />
			<output>
				<port id="0" precision="I64">
					<dim>1</dim>
				</port>
			</output>
		</layer>
		<layer id="308" name="Constant_1433" type="Const" version="opset1">
			<data element_type="i64" shape="1" offset="388" size="8" />
			<output>
				<port id="0" precision="I64">
					<dim>1</dim>
				</port>
			</output>
		</layer>
		<layer id="309" name="/tdb_2/Slice_1" type="Slice" version="opset8">
			<input>
				<port id="0" precision="FP32">
					<dim>-1</dim>
				</port>
				<port id="1" precision="I64">
					<dim>1</dim>
				</port>
				<port id="2" precision="I64">
					<dim>1</dim>
				</port>
				<port id="3" precision="I64">
					<dim>1</dim>
				</port>
				<port id="4" precision="I64">
					<dim>1</dim>
				</port>
			</input>
			<output>
				<port id="5" precision="FP32" names="/tdb_2/Slice_1_output_0">
					<dim>-1</dim>
				</port>
			</output>
		</layer>
		<layer id="310" name="Constant_1437" type="Const" version="opset1">
			<data element_type="i64" shape="" offset="388" size="8" />
			<output>
				<port id="0" precision="I64" />
			</output>
		</layer>
		<layer id="311" name="/tdb_2/ScatterElements_2" type="ScatterElementsUpdate" version="opset12">
			<data reduction="sum" use_init_val="true" />
			<input>
				<port id="0" precision="FP32">
					<dim>-1</dim>
				</port>
				<port id="1" precision="I64">
					<dim>-1</dim>
				</port>
				<port id="2" precision="FP32">
					<dim>-1</dim>
				</port>
				<port id="3" precision="I64" />
			</input>
			<output>
				<port id="4" precision="FP32" names="/tdb_2/ScatterElements_2_output_0">
					<dim>-1</dim>
				</port>
			</output>
		</layer>
		<layer id="312" name="/tdb_2/Constant_18" type="Const" version="opset1">
			<data element_type="i64" shape="1" offset="404" size="8" />
			<output>
				<port id="0" precision="I64" names="/tdb_2/Constant_18_output_0">
					<dim>1</dim>
				</port>
			</output>
		</layer>
		<layer id="313" name="/tdb_2/Unsqueeze_6" type="Unsqueeze" version="opset1">
			<input>
				<port id="0" precision="FP32">
					<dim>-1</dim>
				</port>
				<port id="1" precision="I64">
					<dim>1</dim>
				</port>
			</input>
			<output>
				<port id="2" precision="FP32" names="/tdb_2/Unsqueeze_6_output_0">
					<dim>-1</dim>
					<dim>1</dim>
				</port>
			</output>
		</layer>
		<layer id="314" name="/tdb_2/Div_1" type="Divide" version="opset1">
			<data auto_broadcast="numpy" m_pythondiv="true" />
			<input>
				<port id="0" precision="FP32">
					<dim>-1</dim>
					<dim>3</dim>
				</port>
				<port id="1" precision="FP32">
					<dim>-1</dim>
					<dim>1</dim>
				</port>
			</input>
			<output>
				<port id="2" precision="FP32" names="/tdb_2/Div_1_output_0">
					<dim>-1</dim>
					<dim>3</dim>
				</port>
			</output>
		</layer>
		<layer id="315" name="/tdb_2/Constant_21" type="Const" version="opset1">
			<data element_type="i64" shape="1" offset="388" size="8" />
			<output>
				<port id="0" precision="I64" names="/tdb_2/Constant_21_output_0">
					<dim>1</dim>
				</port>
			</output>
		</layer>
		<layer id="316" name="/tdb_2/Constant_23" type="Const" version="opset1">
			<data element_type="i64" shape="1" offset="404" size="8" />
			<output>
				<port id="0" precision="I64" names="/tdb_2/Constant_23_output_0">
					<dim>1</dim>
				</port>
			</output>
		</layer>
		<layer id="317" name="/tdb_2/Constant_20" type="Const" version="opset1">
			<data element_type="i64" shape="1" offset="388" size="8" />
			<output>
				<port id="0" precision="I64" names="/tdb_2/Constant_20_output_0">
					<dim>1</dim>
				</port>
			</output>
		</layer>
		<layer id="318" name="/tdb_2/Slice_2" type="Slice" version="opset8">
			<input>
				<port id="0" precision="FP32">
					<dim>-1</dim>
					<dim>3</dim>
				</port>
				<port id="1" precision="I64">
					<dim>1</dim>
				</port>
				<port id="2" precision="I64">
					<dim>1</dim>
				</port>
				<port id="3" precision="I64">
					<dim>1</dim>
				</port>
				<port id="4" precision="I64">
					<dim>1</dim>
				</port>
			</input>
			<output>
				<port id="5" precision="FP32" names="/tdb_2/Slice_2_output_0">
					<dim>-1</dim>
					<dim>3</dim>
				</port>
			</output>
		</layer>
		<layer id="319" name="/tdb_2/Constant_28" type="Const" version="opset1">
			<data element_type="i64" shape="1" offset="388" size="8" />
			<output>
				<port id="0" precision="I64" names="/tdb_2/Constant_28_output_0">
					<dim>1</dim>
				</port>
			</output>
		</layer>
		<layer id="320" name="/tdb_2/Unsqueeze_9" type="Unsqueeze" version="opset1">
			<input>
				<port id="0" precision="FP32">
					<dim>-1</dim>
					<dim>3</dim>
				</port>
				<port id="1" precision="I64">
					<dim>1</dim>
				</port>
			</input>
			<output>
				<port id="2" precision="FP32" names="/tdb_2/Concat_4_output_0,/tdb_2/Unsqueeze_9_output_0">
					<dim>1</dim>
					<dim>-1</dim>
					<dim>3</dim>
				</port>
			</output>
		</layer>
		<layer id="321" name="/ptb_2/gva/Constant" type="Const" version="opset1">
			<data element_type="i64" shape="1" offset="420" size="8" />
			<output>
				<port id="0" precision="I64" names="/ptb_2/gva/Constant_output_0">
					<dim>1</dim>
				</port>
			</output>
		</layer>
		<layer id="322" name="/ptb_2/gva/Unsqueeze" type="Unsqueeze" version="opset1">
			<input>
				<port id="0" precision="FP32">
					<dim>1</dim>
					<dim>-1</dim>
					<dim>3</dim>
				</port>
				<port id="1" precision="I64">
					<dim>1</dim>
				</port>
			</input>
			<output>
				<port id="2" precision="FP32" names="/ptb_2/gva/Unsqueeze_output_0,/ptb_7/gva/Unsqueeze_output_0">
					<dim>1</dim>
					<dim>-1</dim>
					<dim>1</dim>
					<dim>3</dim>
				</port>
			</output>
		</layer>
		<layer id="323" name="/ptb_2/Shape_1" type="ShapeOf" version="opset3">
			<data output_type="i64" />
			<input>
				<port id="0" precision="FP32">
					<dim>1</dim>
					<dim>-1</dim>
					<dim>3</dim>
				</port>
			</input>
			<output>
				<port id="1" precision="I64" names="/ptb_2/Shape_1_output_0,/ptb_7/Shape_1_output_0">
					<dim>3</dim>
				</port>
			</output>
		</layer>
		<layer id="324" name="Constant_1507" type="Const" version="opset1">
			<data element_type="i64" shape="1" offset="388" size="8" />
			<rt_info>
				<attribute name="precise" version="0" />
			</rt_info>
			<output>
				<port id="0" precision="I64">
					<dim>1</dim>
				</port>
			</output>
		</layer>
		<layer id="325" name="Constant_1506" type="Const" version="opset1">
			<data element_type="i64" shape="1" offset="412" size="8" />
			<rt_info>
				<attribute name="precise" version="0" />
			</rt_info>
			<output>
				<port id="0" precision="I64">
					<dim>1</dim>
				</port>
			</output>
		</layer>
		<layer id="326" name="Constant_1508" type="Const" version="opset1">
			<data element_type="i64" shape="1" offset="404" size="8" />
			<rt_info>
				<attribute name="precise" version="0" />
			</rt_info>
			<output>
				<port id="0" precision="I64">
					<dim>1</dim>
				</port>
			</output>
		</layer>
		<layer id="327" name="StridedSlice_1509" type="StridedSlice" version="opset1">
			<data begin_mask="0" end_mask="0" new_axis_mask="" shrink_axis_mask="" ellipsis_mask="" />
			<input>
				<port id="0" precision="I64">
					<dim>3</dim>
				</port>
				<port id="1" precision="I64">
					<dim>1</dim>
				</port>
				<port id="2" precision="I64">
					<dim>1</dim>
				</port>
				<port id="3" precision="I64">
					<dim>1</dim>
				</port>
			</input>
			<output>
				<port id="4" precision="I64">
					<dim>2</dim>
				</port>
			</output>
		</layer>
		<layer id="328" name="Constant_1510" type="Const" version="opset1">
			<data element_type="i64" shape="" offset="388" size="8" />
			<rt_info>
				<attribute name="precise" version="0" />
			</rt_info>
			<output>
				<port id="0" precision="I64" />
			</output>
		</layer>
		<layer id="329" name="ReduceProd_1511" type="ReduceProd" version="opset1">
			<data keep_dims="true" />
			<input>
				<port id="0" precision="I64">
					<dim>2</dim>
				</port>
				<port id="1" precision="I64" />
			</input>
			<output>
				<port id="2" precision="I64">
					<dim>1</dim>
				</port>
			</output>
		</layer>
		<layer id="330" name="Constant_1512" type="Const" version="opset1">
			<data element_type="i64" shape="1" offset="428" size="8" />
			<rt_info>
				<attribute name="precise" version="0" />
			</rt_info>
			<output>
				<port id="0" precision="I64">
					<dim>1</dim>
				</port>
			</output>
		</layer>
		<layer id="331" name="Concat_1513" type="Concat" version="opset1">
			<data axis="0" />
			<input>
				<port id="0" precision="I64">
					<dim>1</dim>
				</port>
				<port id="1" precision="I64">
					<dim>1</dim>
				</port>
			</input>
			<output>
				<port id="2" precision="I64">
					<dim>2</dim>
				</port>
			</output>
		</layer>
		<layer id="332" name="/ptb_2/Flatten" type="Reshape" version="opset1">
			<data special_zero="true" />
			<input>
				<port id="0" precision="FP32">
					<dim>1</dim>
					<dim>-1</dim>
					<dim>3</dim>
				</port>
				<port id="1" precision="I64">
					<dim>2</dim>
				</port>
			</input>
			<output>
				<port id="2" precision="FP32" names="/ptb_2/Flatten_output_0,/ptb_7/Flatten_output_0">
					<dim>-1</dim>
					<dim>-1</dim>
				</port>
			</output>
		</layer>
		<layer id="333" name="/ptb_2/Constant" type="Const" version="opset1">
			<data element_type="i64" shape="1" offset="412" size="8" />
			<output>
				<port id="0" precision="I64" names="/ptb_2/Constant_output_0">
					<dim>1</dim>
				</port>
			</output>
		</layer>
		<layer id="334" name="/ptb_2/Unsqueeze" type="Unsqueeze" version="opset1">
			<input>
				<port id="0" precision="FP32">
					<dim>1</dim>
					<dim>-1</dim>
					<dim>3</dim>
				</port>
				<port id="1" precision="I64">
					<dim>1</dim>
				</port>
			</input>
			<output>
				<port id="2" precision="FP32" names="/ptb_2/Unsqueeze_output_0,/ptb_7/Unsqueeze_output_0,/tub_7/Unsqueeze_output_0">
					<dim>1</dim>
					<dim>-1</dim>
					<dim>1</dim>
					<dim>3</dim>
				</port>
			</output>
		</layer>
		<layer id="335" name="/ptb_2/Constant_1" type="Const" version="opset1">
			<data element_type="i64" shape="1" offset="404" size="8" />
			<output>
				<port id="0" precision="I64" names="/ptb_2/Constant_1_output_0">
					<dim>1</dim>
				</port>
			</output>
		</layer>
		<layer id="336" name="/ptb_2/Unsqueeze_1" type="Unsqueeze" version="opset1">
			<input>
				<port id="0" precision="FP32">
					<dim>1</dim>
					<dim>-1</dim>
					<dim>3</dim>
				</port>
				<port id="1" precision="I64">
					<dim>1</dim>
				</port>
			</input>
			<output>
				<port id="2" precision="FP32" names="/ptb_2/Unsqueeze_1_output_0,/ptb_7/Unsqueeze_1_output_0,/tub_8/Unsqueeze_1_output_0">
					<dim>1</dim>
					<dim>1</dim>
					<dim>-1</dim>
					<dim>3</dim>
				</port>
			</output>
		</layer>
		<layer id="337" name="/ptb_2/Sub" type="Subtract" version="opset1">
			<data auto_broadcast="numpy" />
			<input>
				<port id="0" precision="FP32">
					<dim>1</dim>
					<dim>-1</dim>
					<dim>1</dim>
					<dim>3</dim>
				</port>
				<port id="1" precision="FP32">
					<dim>1</dim>
					<dim>1</dim>
					<dim>-1</dim>
					<dim>3</dim>
				</port>
			</input>
			<output>
				<port id="2" precision="FP32" names="/ptb_2/Sub_output_0,/ptb_7/Sub_output_0">
					<dim>1</dim>
					<dim>-1</dim>
					<dim>-1</dim>
					<dim>3</dim>
				</port>
			</output>
		</layer>
		<layer id="338" name="Constant_23395_compressed" type="Const" version="opset1">
			<data element_type="f16" shape="1, 1, 1, 1" offset="436" size="2" />
			<output>
				<port id="0" precision="FP16">
					<dim>1</dim>
					<dim>1</dim>
					<dim>1</dim>
					<dim>1</dim>
				</port>
			</output>
		</layer>
		<layer id="339" name="Constant_23395" type="Convert" version="opset1">
			<data destination_type="f32" />
			<rt_info>
				<attribute name="decompression" version="0" />
			</rt_info>
			<input>
				<port id="0" precision="FP16">
					<dim>1</dim>
					<dim>1</dim>
					<dim>1</dim>
					<dim>1</dim>
				</port>
			</input>
			<output>
				<port id="1" precision="FP32">
					<dim>1</dim>
					<dim>1</dim>
					<dim>1</dim>
					<dim>1</dim>
				</port>
			</output>
		</layer>
		<layer id="340" name="/ptb_2/Pow" type="Power" version="opset1">
			<data auto_broadcast="numpy" />
			<input>
				<port id="0" precision="FP32">
					<dim>1</dim>
					<dim>-1</dim>
					<dim>-1</dim>
					<dim>3</dim>
				</port>
				<port id="1" precision="FP32">
					<dim>1</dim>
					<dim>1</dim>
					<dim>1</dim>
					<dim>1</dim>
				</port>
			</input>
			<output>
				<port id="2" precision="FP32" names="/ptb_2/Pow_output_0,/ptb_7/Pow_output_0">
					<dim>1</dim>
					<dim>-1</dim>
					<dim>-1</dim>
					<dim>3</dim>
				</port>
			</output>
		</layer>
		<layer id="341" name="/ptb_2/Constant_4" type="Const" version="opset1">
			<data element_type="i64" shape="1" offset="428" size="8" />
			<output>
				<port id="0" precision="I64" names="/ptb_2/Constant_4_output_0">
					<dim>1</dim>
				</port>
			</output>
		</layer>
		<layer id="342" name="/ptb_2/ReduceSum" type="ReduceSum" version="opset1">
			<data keep_dims="false" />
			<input>
				<port id="0" precision="FP32">
					<dim>1</dim>
					<dim>-1</dim>
					<dim>-1</dim>
					<dim>3</dim>
				</port>
				<port id="1" precision="I64">
					<dim>1</dim>
				</port>
			</input>
			<output>
				<port id="2" precision="FP32" names="/ptb_2/ReduceSum_output_0,/ptb_7/ReduceSum_output_0">
					<dim>1</dim>
					<dim>-1</dim>
					<dim>-1</dim>
				</port>
			</output>
		</layer>
		<layer id="343" name="Constant_23396_compressed" type="Const" version="opset1">
			<data element_type="f16" shape="1, 1, 1" offset="438" size="2" />
			<output>
				<port id="0" precision="FP16">
					<dim>1</dim>
					<dim>1</dim>
					<dim>1</dim>
				</port>
			</output>
		</layer>
		<layer id="344" name="Constant_23396" type="Convert" version="opset1">
			<data destination_type="f32" />
			<rt_info>
				<attribute name="decompression" version="0" />
			</rt_info>
			<input>
				<port id="0" precision="FP16">
					<dim>1</dim>
					<dim>1</dim>
					<dim>1</dim>
				</port>
			</input>
			<output>
				<port id="1" precision="FP32">
					<dim>1</dim>
					<dim>1</dim>
					<dim>1</dim>
				</port>
			</output>
		</layer>
		<layer id="345" name="/ptb_2/Pow_1" type="Power" version="opset1">
			<data auto_broadcast="numpy" />
			<input>
				<port id="0" precision="FP32">
					<dim>1</dim>
					<dim>-1</dim>
					<dim>-1</dim>
				</port>
				<port id="1" precision="FP32">
					<dim>1</dim>
					<dim>1</dim>
					<dim>1</dim>
				</port>
			</input>
			<output>
				<port id="2" precision="FP32" names="/ptb_2/Pow_1_output_0,/ptb_7/Pow_1_output_0">
					<dim>1</dim>
					<dim>-1</dim>
					<dim>-1</dim>
				</port>
			</output>
		</layer>
		<layer id="346" name="Constant_3757" type="Const" version="opset1">
			<data element_type="i64" shape="" offset="412" size="8" />
			<rt_info>
				<attribute name="precise" version="0" />
			</rt_info>
			<output>
				<port id="0" precision="I64" />
			</output>
		</layer>
		<layer id="347" name="/ptb_7/TopK" type="TopK" version="opset11">
			<data axis="-1" mode="min" sort="value" index_element_type="i64" stable="false" />
			<input>
				<port id="0" precision="FP32">
					<dim>1</dim>
					<dim>-1</dim>
					<dim>-1</dim>
				</port>
				<port id="1" precision="I64" />
			</input>
			<output>
				<port id="2" precision="FP32" names="/ptb_7/TopK_output_0">
					<dim>1</dim>
					<dim>-1</dim>
					<dim>2</dim>
				</port>
				<port id="3" precision="I64" names="/ptb_7/TopK_output_1">
					<dim>1</dim>
					<dim>-1</dim>
					<dim>2</dim>
				</port>
			</output>
		</layer>
		<layer id="348" name="/ptb_7/Constant_7" type="Const" version="opset1">
			<data element_type="i64" shape="" offset="388" size="8" />
			<output>
				<port id="0" precision="I64" names="/ptb_7/Constant_7_output_0" />
			</output>
		</layer>
		<layer id="349" name="/ptb_7/Shape" type="ShapeOf" version="opset3">
			<data output_type="i64" />
			<input>
				<port id="0" precision="I64">
					<dim>1</dim>
					<dim>-1</dim>
					<dim>2</dim>
				</port>
			</input>
			<output>
				<port id="1" precision="I64" names="/ptb_7/Shape_output_0">
					<dim>3</dim>
				</port>
			</output>
		</layer>
		<layer id="350" name="/ptb_7/Constant_6" type="Const" version="opset1">
			<data element_type="i64" shape="" offset="388" size="8" />
			<output>
				<port id="0" precision="I64" names="/ptb_7/Constant_6_output_0" />
			</output>
		</layer>
		<layer id="351" name="Constant_3761" type="Const" version="opset1">
			<data element_type="i64" shape="" offset="388" size="8" />
			<output>
				<port id="0" precision="I64" />
			</output>
		</layer>
		<layer id="352" name="/ptb_7/Gather" type="Gather" version="opset8">
			<data batch_dims="0" />
			<input>
				<port id="0" precision="I64">
					<dim>3</dim>
				</port>
				<port id="1" precision="I64" />
				<port id="2" precision="I64" />
			</input>
			<output>
				<port id="3" precision="I64" names="/ptb_7/Cast_1_output_0,/ptb_7/Cast_output_0,/ptb_7/Gather_output_0" />
			</output>
		</layer>
		<layer id="353" name="/ptb_7/Constant_8" type="Const" version="opset1">
			<data element_type="i64" shape="" offset="404" size="8" />
			<output>
				<port id="0" precision="I64" names="/ptb_7/Constant_8_output_0" />
			</output>
		</layer>
		<layer id="354" name="/ptb_7/Range" type="Range" version="opset4">
			<data output_type="i64" />
			<input>
				<port id="0" precision="I64" />
				<port id="1" precision="I64" />
				<port id="2" precision="I64" />
			</input>
			<output>
				<port id="3" precision="I64" names="/ptb_7/Range_1_output_0,/ptb_7/Range_output_0">
					<dim>1</dim>
				</port>
			</output>
		</layer>
		<layer id="355" name="/ptb_7/Constant_9" type="Const" version="opset1">
			<data element_type="i64" shape="3" offset="448" size="24" />
			<rt_info>
				<attribute name="precise" version="0" />
			</rt_info>
			<output>
				<port id="0" precision="I64" names="/ptb_7/Constant_9_output_0">
					<dim>3</dim>
				</port>
			</output>
		</layer>
		<layer id="356" name="/ptb_7/Reshape" type="Reshape" version="opset1">
			<data special_zero="true" />
			<input>
				<port id="0" precision="I64">
					<dim>1</dim>
				</port>
				<port id="1" precision="I64">
					<dim>3</dim>
				</port>
			</input>
			<output>
				<port id="2" precision="I64" names="/ptb_7/Reshape_3_output_0,/ptb_7/Reshape_output_0">
					<dim>1</dim>
					<dim>1</dim>
					<dim>1</dim>
				</port>
			</output>
		</layer>
		<layer id="357" name="/ptb_2/Constant_10" type="Const" version="opset1">
			<data element_type="i64" shape="1" offset="404" size="8" />
			<rt_info>
				<attribute name="precise" version="0" />
			</rt_info>
			<output>
				<port id="0" precision="I64" names="/ptb_2/Constant_10_output_0">
					<dim>1</dim>
				</port>
			</output>
		</layer>
		<layer id="358" name="Constant_1499" type="Const" version="opset1">
			<data element_type="i64" shape="" offset="388" size="8" />
			<rt_info>
				<attribute name="precise" version="0" />
			</rt_info>
			<output>
				<port id="0" precision="I64" />
			</output>
		</layer>
		<layer id="359" name="/ptb_2/Gather_1" type="Gather" version="opset8">
			<data batch_dims="0" />
			<input>
				<port id="0" precision="I64">
					<dim>3</dim>
				</port>
				<port id="1" precision="I64">
					<dim>1</dim>
				</port>
				<port id="2" precision="I64" />
			</input>
			<output>
				<port id="3" precision="I64" names="/ptb_2/Gather_1_output_0,/ptb_7/Gather_1_output_0,/tub_7/Gather_1_output_0,/tub_7/Unsqueeze_2_output_0">
					<dim>1</dim>
				</port>
			</output>
		</layer>
		<layer id="360" name="/ptb_7/Mul" type="Multiply" version="opset1">
			<data auto_broadcast="numpy" />
			<input>
				<port id="0" precision="I64">
					<dim>1</dim>
					<dim>1</dim>
					<dim>1</dim>
				</port>
				<port id="1" precision="I64">
					<dim>1</dim>
				</port>
			</input>
			<output>
				<port id="2" precision="I64" names="/ptb_7/Mul_output_0">
					<dim>1</dim>
					<dim>1</dim>
					<dim>1</dim>
				</port>
			</output>
		</layer>
		<layer id="361" name="/ptb_7/Add" type="Add" version="opset1">
			<data auto_broadcast="numpy" />
			<input>
				<port id="0" precision="I64">
					<dim>1</dim>
					<dim>-1</dim>
					<dim>2</dim>
				</port>
				<port id="1" precision="I64">
					<dim>1</dim>
					<dim>1</dim>
					<dim>1</dim>
				</port>
			</input>
			<output>
				<port id="2" precision="I64" names="/ptb_7/Add_output_0">
					<dim>1</dim>
					<dim>-1</dim>
					<dim>2</dim>
				</port>
			</output>
		</layer>
		<layer id="362" name="Constant_3823" type="Const" version="opset1">
			<data element_type="i64" shape="" offset="388" size="8" />
			<output>
				<port id="0" precision="I64" />
			</output>
		</layer>
		<layer id="363" name="/ptb_7/Gather_3" type="Gather" version="opset8">
			<data batch_dims="0" />
			<input>
				<port id="0" precision="FP32">
					<dim>-1</dim>
					<dim>-1</dim>
				</port>
				<port id="1" precision="I64">
					<dim>1</dim>
					<dim>-1</dim>
					<dim>2</dim>
				</port>
				<port id="2" precision="I64" />
			</input>
			<output>
				<port id="3" precision="FP32" names="/ptb_7/Gather_3_output_0">
					<dim>1</dim>
					<dim>-1</dim>
					<dim>2</dim>
					<dim>-1</dim>
				</port>
			</output>
		</layer>
		<layer id="364" name="Constant_24662" type="Const" version="opset1">
			<data element_type="i64" shape="2" offset="6762" size="16" />
			<rt_info>
				<attribute name="precise" version="0" />
			</rt_info>
			<output>
				<port id="0" precision="I64">
					<dim>2</dim>
				</port>
			</output>
		</layer>
		<layer id="365" name="/ptb_7/Reshape_1" type="Reshape" version="opset1">
			<data special_zero="true" />
			<input>
				<port id="0" precision="FP32">
					<dim>1</dim>
					<dim>-1</dim>
					<dim>2</dim>
					<dim>-1</dim>
				</port>
				<port id="1" precision="I64">
					<dim>2</dim>
				</port>
			</input>
			<output>
				<port id="2" precision="FP32" names="/ptb_7/Reshape_1_output_0">
					<dim>-1</dim>
					<dim>3</dim>
				</port>
			</output>
		</layer>
		<layer id="366" name="Constant_24663" type="Const" version="opset1">
			<data element_type="i64" shape="4" offset="28320" size="32" />
			<rt_info>
				<attribute name="precise" version="0" />
			</rt_info>
			<output>
				<port id="0" precision="I64">
					<dim>4</dim>
				</port>
			</output>
		</layer>
		<layer id="367" name="/ptb_7/Reshape_2" type="Reshape" version="opset1">
			<data special_zero="true" />
			<input>
				<port id="0" precision="FP32">
					<dim>-1</dim>
					<dim>3</dim>
				</port>
				<port id="1" precision="I64">
					<dim>4</dim>
				</port>
			</input>
			<output>
				<port id="2" precision="FP32" names="/ptb_7/Reshape_2_output_0">
					<dim>1</dim>
					<dim>-1</dim>
					<dim>2</dim>
					<dim>3</dim>
				</port>
			</output>
		</layer>
		<layer id="368" name="/ptb_7/gva/delta_mult/Sub" type="Subtract" version="opset1">
			<data auto_broadcast="numpy" />
			<input>
				<port id="0" precision="FP32">
					<dim>1</dim>
					<dim>-1</dim>
					<dim>1</dim>
					<dim>3</dim>
				</port>
				<port id="1" precision="FP32">
					<dim>1</dim>
					<dim>-1</dim>
					<dim>2</dim>
					<dim>3</dim>
				</port>
			</input>
			<output>
				<port id="2" precision="FP32" names="/ptb_7/gva/delta_mult/Sub_output_0">
					<dim>1</dim>
					<dim>-1</dim>
					<dim>2</dim>
					<dim>3</dim>
				</port>
			</output>
		</layer>
		<layer id="369" name="Transpose_19169_compressed" type="Const" version="opset1">
			<data element_type="f16" shape="192, 3" offset="28352" size="1152" />
			<output>
				<port id="0" precision="FP16">
					<dim>192</dim>
					<dim>3</dim>
				</port>
			</output>
		</layer>
		<layer id="370" name="Transpose_19169" type="Convert" version="opset1">
			<data destination_type="f32" />
			<rt_info>
				<attribute name="decompression" version="0" />
			</rt_info>
			<input>
				<port id="0" precision="FP16">
					<dim>192</dim>
					<dim>3</dim>
				</port>
			</input>
			<output>
				<port id="1" precision="FP32">
					<dim>192</dim>
					<dim>3</dim>
				</port>
			</output>
		</layer>
		<layer id="371" name="/ptb_7/gva/delta_mult/linear_1/MatMul" type="MatMul" version="opset1">
			<data transpose_a="false" transpose_b="true" />
			<input>
				<port id="0" precision="FP32">
					<dim>1</dim>
					<dim>-1</dim>
					<dim>2</dim>
					<dim>3</dim>
				</port>
				<port id="1" precision="FP32">
					<dim>192</dim>
					<dim>3</dim>
				</port>
			</input>
			<output>
				<port id="2" precision="FP32" names="/ptb_7/gva/delta_mult/linear_1/MatMul_output_0">
					<dim>1</dim>
					<dim>-1</dim>
					<dim>2</dim>
					<dim>192</dim>
				</port>
			</output>
		</layer>
		<layer id="372" name="/ptb_7/gva/delta_mult/linear_1/Add" type="Add" version="opset1">
			<data auto_broadcast="numpy" />
			<input>
				<port id="0" precision="FP32">
					<dim>1</dim>
					<dim>1</dim>
					<dim>1</dim>
					<dim>192</dim>
				</port>
				<port id="1" precision="FP32">
					<dim>1</dim>
					<dim>-1</dim>
					<dim>2</dim>
					<dim>192</dim>
				</port>
			</input>
			<output>
				<port id="2" precision="FP32" names="/ptb_7/gva/delta_mult/linear_1/Add_output_0">
					<dim>1</dim>
					<dim>-1</dim>
					<dim>2</dim>
					<dim>192</dim>
				</port>
			</output>
		</layer>
		<layer id="373" name="Constant_3912" type="Const" version="opset1">
			<data element_type="i64" shape="4" offset="760" size="32" />
			<output>
				<port id="0" precision="I64">
					<dim>4</dim>
				</port>
			</output>
		</layer>
		<layer id="374" name="/ptb_7/gva/delta_mult/Transpose" type="Transpose" version="opset1">
			<input>
				<port id="0" precision="FP32">
					<dim>1</dim>
					<dim>-1</dim>
					<dim>2</dim>
					<dim>192</dim>
				</port>
				<port id="1" precision="I64">
					<dim>4</dim>
				</port>
			</input>
			<output>
				<port id="2" precision="FP32" names="/ptb_7/gva/delta_mult/Transpose_output_0">
					<dim>1</dim>
					<dim>192</dim>
					<dim>-1</dim>
					<dim>2</dim>
				</port>
			</output>
		</layer>
		<layer id="375" name="Constant_20305_compressed" type="Const" version="opset1">
			<data element_type="f16" shape="1, 192, 1, 1" offset="29504" size="384" />
			<output>
				<port id="0" precision="FP16">
					<dim>1</dim>
					<dim>192</dim>
					<dim>1</dim>
					<dim>1</dim>
				</port>
			</output>
		</layer>
		<layer id="376" name="Constant_20305" type="Convert" version="opset1">
			<data destination_type="f32" />
			<rt_info>
				<attribute name="decompression" version="0" />
			</rt_info>
			<input>
				<port id="0" precision="FP16">
					<dim>1</dim>
					<dim>192</dim>
					<dim>1</dim>
					<dim>1</dim>
				</port>
			</input>
			<output>
				<port id="1" precision="FP32">
					<dim>1</dim>
					<dim>192</dim>
					<dim>1</dim>
					<dim>1</dim>
				</port>
			</output>
		</layer>
		<layer id="377" name="Multiply_22563" type="Multiply" version="opset1">
			<data auto_broadcast="numpy" />
			<input>
				<port id="0" precision="FP32">
					<dim>1</dim>
					<dim>192</dim>
					<dim>-1</dim>
					<dim>2</dim>
				</port>
				<port id="1" precision="FP32">
					<dim>1</dim>
					<dim>192</dim>
					<dim>1</dim>
					<dim>1</dim>
				</port>
			</input>
			<output>
				<port id="2" precision="FP32">
					<dim>1</dim>
					<dim>192</dim>
					<dim>-1</dim>
					<dim>2</dim>
				</port>
			</output>
		</layer>
		<layer id="378" name="Constant_22568_compressed" type="Const" version="opset1">
			<data element_type="f16" shape="1, 192, 1, 1" offset="29888" size="384" />
			<output>
				<port id="0" precision="FP16">
					<dim>1</dim>
					<dim>192</dim>
					<dim>1</dim>
					<dim>1</dim>
				</port>
			</output>
		</layer>
		<layer id="379" name="Constant_22568" type="Convert" version="opset1">
			<data destination_type="f32" />
			<rt_info>
				<attribute name="decompression" version="0" />
			</rt_info>
			<input>
				<port id="0" precision="FP16">
					<dim>1</dim>
					<dim>192</dim>
					<dim>1</dim>
					<dim>1</dim>
				</port>
			</input>
			<output>
				<port id="1" precision="FP32">
					<dim>1</dim>
					<dim>192</dim>
					<dim>1</dim>
					<dim>1</dim>
				</port>
			</output>
		</layer>
		<layer id="380" name="/ptb_7/gva/delta_mult/batch_norm/BatchNormalization" type="Add" version="opset1">
			<data auto_broadcast="numpy" />
			<input>
				<port id="0" precision="FP32">
					<dim>1</dim>
					<dim>192</dim>
					<dim>-1</dim>
					<dim>2</dim>
				</port>
				<port id="1" precision="FP32">
					<dim>1</dim>
					<dim>192</dim>
					<dim>1</dim>
					<dim>1</dim>
				</port>
			</input>
			<output>
				<port id="2" precision="FP32" names="/ptb_7/gva/delta_mult/batch_norm/BatchNormalization_output_0">
					<dim>1</dim>
					<dim>192</dim>
					<dim>-1</dim>
					<dim>2</dim>
				</port>
			</output>
		</layer>
		<layer id="381" name="Constant_3915" type="Const" version="opset1">
			<data element_type="i64" shape="4" offset="984" size="32" />
			<output>
				<port id="0" precision="I64">
					<dim>4</dim>
				</port>
			</output>
		</layer>
		<layer id="382" name="/ptb_7/gva/delta_mult/Transpose_1" type="Transpose" version="opset1">
			<input>
				<port id="0" precision="FP32">
					<dim>1</dim>
					<dim>192</dim>
					<dim>-1</dim>
					<dim>2</dim>
				</port>
				<port id="1" precision="I64">
					<dim>4</dim>
				</port>
			</input>
			<output>
				<port id="2" precision="FP32" names="/ptb_7/gva/delta_mult/Transpose_1_output_0">
					<dim>1</dim>
					<dim>-1</dim>
					<dim>2</dim>
					<dim>192</dim>
				</port>
			</output>
		</layer>
		<layer id="383" name="/ptb_7/gva/delta_mult/relu/Relu" type="ReLU" version="opset1">
			<input>
				<port id="0" precision="FP32">
					<dim>1</dim>
					<dim>-1</dim>
					<dim>2</dim>
					<dim>192</dim>
				</port>
			</input>
			<output>
				<port id="1" precision="FP32" names="/ptb_7/gva/delta_mult/relu/Relu_output_0">
					<dim>1</dim>
					<dim>-1</dim>
					<dim>2</dim>
					<dim>192</dim>
				</port>
			</output>
		</layer>
		<layer id="384" name="Transpose_19176_compressed" type="Const" version="opset1">
			<data element_type="f16" shape="192, 192" offset="30272" size="73728" />
			<output>
				<port id="0" precision="FP16">
					<dim>192</dim>
					<dim>192</dim>
				</port>
			</output>
		</layer>
		<layer id="385" name="Transpose_19176" type="Convert" version="opset1">
			<data destination_type="f32" />
			<rt_info>
				<attribute name="decompression" version="0" />
			</rt_info>
			<input>
				<port id="0" precision="FP16">
					<dim>192</dim>
					<dim>192</dim>
				</port>
			</input>
			<output>
				<port id="1" precision="FP32">
					<dim>192</dim>
					<dim>192</dim>
				</port>
			</output>
		</layer>
		<layer id="386" name="/ptb_7/gva/delta_mult/linear_2/MatMul" type="MatMul" version="opset1">
			<data transpose_a="false" transpose_b="true" />
			<input>
				<port id="0" precision="FP32">
					<dim>1</dim>
					<dim>-1</dim>
					<dim>2</dim>
					<dim>192</dim>
				</port>
				<port id="1" precision="FP32">
					<dim>192</dim>
					<dim>192</dim>
				</port>
			</input>
			<output>
				<port id="2" precision="FP32" names="/ptb_7/gva/delta_mult/linear_2/MatMul_output_0">
					<dim>1</dim>
					<dim>-1</dim>
					<dim>2</dim>
					<dim>192</dim>
				</port>
			</output>
		</layer>
		<layer id="387" name="/ptb_7/gva/delta_mult/linear_2/Add" type="Add" version="opset1">
			<data auto_broadcast="numpy" />
			<input>
				<port id="0" precision="FP32">
					<dim>1</dim>
					<dim>1</dim>
					<dim>1</dim>
					<dim>192</dim>
				</port>
				<port id="1" precision="FP32">
					<dim>1</dim>
					<dim>-1</dim>
					<dim>2</dim>
					<dim>192</dim>
				</port>
			</input>
			<output>
				<port id="2" precision="FP32" names="/ptb_7/gva/delta_mult/linear_2/Add_output_0">
					<dim>1</dim>
					<dim>-1</dim>
					<dim>2</dim>
					<dim>192</dim>
				</port>
			</output>
		</layer>
		<layer id="388" name="Constant_23488_compressed" type="Const" version="opset1">
			<data element_type="f16" shape="1, 1, 1, 192" offset="104000" size="384" />
			<output>
				<port id="0" precision="FP16">
					<dim>1</dim>
					<dim>1</dim>
					<dim>1</dim>
					<dim>192</dim>
				</port>
			</output>
		</layer>
		<layer id="389" name="Constant_23488" type="Convert" version="opset1">
			<data destination_type="f32" />
			<rt_info>
				<attribute name="decompression" version="0" />
			</rt_info>
			<input>
				<port id="0" precision="FP16">
					<dim>1</dim>
					<dim>1</dim>
					<dim>1</dim>
					<dim>192</dim>
				</port>
			</input>
			<output>
				<port id="1" precision="FP32">
					<dim>1</dim>
					<dim>1</dim>
					<dim>1</dim>
					<dim>192</dim>
				</port>
			</output>
		</layer>
		<layer id="390" name="Constant_23487_compressed" type="Const" version="opset1">
			<data element_type="f16" shape="1, 1, 192" offset="104384" size="384" />
			<output>
				<port id="0" precision="FP16">
					<dim>1</dim>
					<dim>1</dim>
					<dim>192</dim>
				</port>
			</output>
		</layer>
		<layer id="391" name="Constant_23487" type="Convert" version="opset1">
			<data destination_type="f32" />
			<rt_info>
				<attribute name="decompression" version="0" />
			</rt_info>
			<input>
				<port id="0" precision="FP16">
					<dim>1</dim>
					<dim>1</dim>
					<dim>192</dim>
				</port>
			</input>
			<output>
				<port id="1" precision="FP32">
					<dim>1</dim>
					<dim>1</dim>
					<dim>192</dim>
				</port>
			</output>
		</layer>
		<layer id="392" name="Constant_23480_compressed" type="Const" version="opset1">
			<data element_type="f16" shape="1, 1, 192" offset="104768" size="384" />
			<output>
				<port id="0" precision="FP16">
					<dim>1</dim>
					<dim>1</dim>
					<dim>192</dim>
				</port>
			</output>
		</layer>
		<layer id="393" name="Constant_23480" type="Convert" version="opset1">
			<data destination_type="f32" />
			<rt_info>
				<attribute name="decompression" version="0" />
			</rt_info>
			<input>
				<port id="0" precision="FP16">
					<dim>1</dim>
					<dim>1</dim>
					<dim>192</dim>
				</port>
			</input>
			<output>
				<port id="1" precision="FP32">
					<dim>1</dim>
					<dim>1</dim>
					<dim>192</dim>
				</port>
			</output>
		</layer>
		<layer id="394" name="Constant_23479_compressed" type="Const" version="opset1">
			<data element_type="f16" shape="1, 1, 384" offset="105152" size="768" />
			<output>
				<port id="0" precision="FP16">
					<dim>1</dim>
					<dim>1</dim>
					<dim>384</dim>
				</port>
			</output>
		</layer>
		<layer id="395" name="Constant_23479" type="Convert" version="opset1">
			<data destination_type="f32" />
			<rt_info>
				<attribute name="decompression" version="0" />
			</rt_info>
			<input>
				<port id="0" precision="FP16">
					<dim>1</dim>
					<dim>1</dim>
					<dim>384</dim>
				</port>
…
		<edge from-layer="1881" from-port="0" to-layer="1882" to-port="3" />
		<edge from-layer="1882" from-port="4" to-layer="1884" to-port="0" />
		<edge from-layer="1883" from-port="0" to-layer="1884" to-port="1" />
		<edge from-layer="1884" from-port="2" to-layer="1886" to-port="0" />
		<edge from-layer="1885" from-port="0" to-layer="1886" to-port="1" />
		<edge from-layer="1886" from-port="2" to-layer="1887" to-port="1" />
		<edge from-layer="1887" from-port="2" to-layer="1925" to-port="0" />
		<edge from-layer="1888" from-port="2" to-layer="1891" to-port="0" />
		<edge from-layer="1889" from-port="0" to-layer="1890" to-port="0" />
		<edge from-layer="1890" from-port="1" to-layer="1891" to-port="1" />
		<edge from-layer="1891" from-port="2" to-layer="1893" to-port="0" />
		<edge from-layer="1892" from-port="0" to-layer="1893" to-port="1" />
		<edge from-layer="1893" from-port="2" to-layer="1896" to-port="0" />
		<edge from-layer="1894" from-port="0" to-layer="1895" to-port="0" />
		<edge from-layer="1895" from-port="1" to-layer="1896" to-port="1" />
		<edge from-layer="1896" from-port="2" to-layer="1898" to-port="0" />
		<edge from-layer="1897" from-port="0" to-layer="1898" to-port="1" />
		<edge from-layer="1898" from-port="3" to-layer="1900" to-port="0" />
		<edge from-layer="1898" from-port="2" to-layer="1933" to-port="0" />
		<edge from-layer="1898" from-port="3" to-layer="1902" to-port="0" />
		<edge from-layer="1899" from-port="0" to-layer="1900" to-port="1" />
		<edge from-layer="1900" from-port="2" to-layer="1923" to-port="0" />
		<edge from-layer="1901" from-port="0" to-layer="1907" to-port="0" />
		<edge from-layer="1902" from-port="1" to-layer="1905" to-port="0" />
		<edge from-layer="1903" from-port="0" to-layer="1905" to-port="1" />
		<edge from-layer="1904" from-port="0" to-layer="1905" to-port="2" />
		<edge from-layer="1905" from-port="3" to-layer="1907" to-port="1" />
		<edge from-layer="1906" from-port="0" to-layer="1907" to-port="2" />
		<edge from-layer="1907" from-port="3" to-layer="1909" to-port="0" />
		<edge from-layer="1908" from-port="0" to-layer="1909" to-port="1" />
		<edge from-layer="1909" from-port="2" to-layer="1916" to-port="0" />
		<edge from-layer="1910" from-port="0" to-layer="1911" to-port="0" />
		<edge from-layer="1911" from-port="2" to-layer="1915" to-port="2" />
		<edge from-layer="1911" from-port="2" to-layer="1913" to-port="0" />
		<edge from-layer="1912" from-port="0" to-layer="1913" to-port="1" />
		<edge from-layer="1913" from-port="2" to-layer="1915" to-port="0" />
		<edge from-layer="1914" from-port="0" to-layer="1915" to-port="1" />
		<edge from-layer="1915" from-port="3" to-layer="1916" to-port="1" />
		<edge from-layer="1916" from-port="2" to-layer="1918" to-port="0" />
		<edge from-layer="1917" from-port="0" to-layer="1918" to-port="1" />
		<edge from-layer="1918" from-port="2" to-layer="1922" to-port="0" />
		<edge from-layer="1919" from-port="0" to-layer="1921" to-port="1" />
		<edge from-layer="1920" from-port="0" to-layer="1921" to-port="2" />
		<edge from-layer="1921" from-port="3" to-layer="1922" to-port="1" />
		<edge from-layer="1922" from-port="2" to-layer="1923" to-port="1" />
		<edge from-layer="1923" from-port="2" to-layer="1925" to-port="1" />
		<edge from-layer="1924" from-port="0" to-layer="1925" to-port="2" />
		<edge from-layer="1925" from-port="3" to-layer="1927" to-port="0" />
		<edge from-layer="1926" from-port="0" to-layer="1927" to-port="1" />
		<edge from-layer="1927" from-port="2" to-layer="1929" to-port="0" />
		<edge from-layer="1928" from-port="0" to-layer="1929" to-port="1" />
		<edge from-layer="1929" from-port="2" to-layer="1941" to-port="0" />
		<edge from-layer="1930" from-port="0" to-layer="1931" to-port="0" />
		<edge from-layer="1931" from-port="1" to-layer="1934" to-port="0" />
		<edge from-layer="1932" from-port="0" to-layer="1933" to-port="1" />
		<edge from-layer="1933" from-port="2" to-layer="1934" to-port="1" />
		<edge from-layer="1934" from-port="2" to-layer="1936" to-port="0" />
		<edge from-layer="1934" from-port="2" to-layer="1935" to-port="0" />
		<edge from-layer="1935" from-port="2" to-layer="1936" to-port="1" />
		<edge from-layer="1936" from-port="2" to-layer="1938" to-port="0" />
		<edge from-layer="1937" from-port="0" to-layer="1938" to-port="1" />
		<edge from-layer="1938" from-port="2" to-layer="1940" to-port="0" />
		<edge from-layer="1939" from-port="0" to-layer="1940" to-port="1" />
		<edge from-layer="1940" from-port="2" to-layer="1941" to-port="1" />
		<edge from-layer="1941" from-port="2" to-layer="1943" to-port="0" />
		<edge from-layer="1942" from-port="0" to-layer="1943" to-port="1" />
		<edge from-layer="1943" from-port="2" to-layer="1944" to-port="0" />
		<edge from-layer="1944" from-port="2" to-layer="1946" to-port="0" />
		<edge from-layer="1945" from-port="0" to-layer="1946" to-port="1" />
		<edge from-layer="1946" from-port="2" to-layer="1964" to-port="0" />
		<edge from-layer="1947" from-port="0" to-layer="1948" to-port="0" />
		<edge from-layer="1948" from-port="1" to-layer="1952" to-port="0" />
		<edge from-layer="1949" from-port="0" to-layer="1950" to-port="0" />
		<edge from-layer="1950" from-port="1" to-layer="1951" to-port="1" />
		<edge from-layer="1951" from-port="2" to-layer="1952" to-port="1" />
		<edge from-layer="1952" from-port="2" to-layer="1954" to-port="0" />
		<edge from-layer="1953" from-port="0" to-layer="1954" to-port="1" />
		<edge from-layer="1954" from-port="2" to-layer="1957" to-port="0" />
		<edge from-layer="1955" from-port="0" to-layer="1956" to-port="0" />
		<edge from-layer="1956" from-port="1" to-layer="1957" to-port="1" />
		<edge from-layer="1957" from-port="2" to-layer="1960" to-port="0" />
		<edge from-layer="1958" from-port="0" to-layer="1959" to-port="0" />
		<edge from-layer="1959" from-port="1" to-layer="1960" to-port="1" />
		<edge from-layer="1960" from-port="2" to-layer="1962" to-port="0" />
		<edge from-layer="1961" from-port="0" to-layer="1962" to-port="1" />
		<edge from-layer="1962" from-port="2" to-layer="1963" to-port="0" />
		<edge from-layer="1963" from-port="1" to-layer="1964" to-port="1" />
		<edge from-layer="1964" from-port="2" to-layer="1979" to-port="0" />
		<edge from-layer="1965" from-port="0" to-layer="1966" to-port="0" />
		<edge from-layer="1966" from-port="1" to-layer="1978" to-port="0" />
		<edge from-layer="1967" from-port="0" to-layer="1968" to-port="1" />
		<edge from-layer="1968" from-port="2" to-layer="1971" to-port="0" />
		<edge from-layer="1969" from-port="0" to-layer="1970" to-port="0" />
		<edge from-layer="1970" from-port="1" to-layer="1971" to-port="1" />
		<edge from-layer="1971" from-port="2" to-layer="1974" to-port="0" />
		<edge from-layer="1972" from-port="0" to-layer="1973" to-port="0" />
		<edge from-layer="1973" from-port="1" to-layer="1974" to-port="1" />
		<edge from-layer="1974" from-port="2" to-layer="1977" to-port="0" />
		<edge from-layer="1975" from-port="0" to-layer="1976" to-port="0" />
		<edge from-layer="1976" from-port="1" to-layer="1977" to-port="1" />
		<edge from-layer="1977" from-port="2" to-layer="1978" to-port="1" />
		<edge from-layer="1978" from-port="2" to-layer="1979" to-port="1" />
		<edge from-layer="1979" from-port="2" to-layer="2089" to-port="1" />
		<edge from-layer="1979" from-port="2" to-layer="1982" to-port="0" />
		<edge from-layer="1980" from-port="0" to-layer="1981" to-port="0" />
		<edge from-layer="1981" from-port="1" to-layer="1982" to-port="1" />
		<edge from-layer="1982" from-port="2" to-layer="1983" to-port="1" />
		<edge from-layer="1983" from-port="2" to-layer="1992" to-port="0" />
		<edge from-layer="1983" from-port="2" to-layer="2001" to-port="0" />
		<edge from-layer="1983" from-port="2" to-layer="1985" to-port="0" />
		<edge from-layer="1984" from-port="0" to-layer="1985" to-port="1" />
		<edge from-layer="1985" from-port="2" to-layer="1988" to-port="0" />
		<edge from-layer="1986" from-port="0" to-layer="1987" to-port="0" />
		<edge from-layer="1987" from-port="1" to-layer="1988" to-port="1" />
		<edge from-layer="1988" from-port="2" to-layer="1989" to-port="1" />
		<edge from-layer="1989" from-port="2" to-layer="2017" to-port="0" />
		<edge from-layer="1990" from-port="0" to-layer="1991" to-port="0" />
		<edge from-layer="1991" from-port="1" to-layer="2016" to-port="0" />
		<edge from-layer="1992" from-port="1" to-layer="2004" to-port="0" />
		<edge from-layer="1992" from-port="1" to-layer="1996" to-port="0" />
		<edge from-layer="1993" from-port="0" to-layer="1996" to-port="1" />
		<edge from-layer="1994" from-port="0" to-layer="1996" to-port="2" />
		<edge from-layer="1995" from-port="0" to-layer="1996" to-port="3" />
		<edge from-layer="1996" from-port="4" to-layer="1998" to-port="0" />
		<edge from-layer="1997" from-port="0" to-layer="1998" to-port="1" />
		<edge from-layer="1998" from-port="2" to-layer="2000" to-port="0" />
		<edge from-layer="1999" from-port="0" to-layer="2000" to-port="1" />
		<edge from-layer="2000" from-port="2" to-layer="2001" to-port="1" />
		<edge from-layer="2001" from-port="2" to-layer="2008" to-port="0" />
		<edge from-layer="2002" from-port="0" to-layer="2004" to-port="1" />
		<edge from-layer="2003" from-port="0" to-layer="2004" to-port="2" />
		<edge from-layer="2004" from-port="3" to-layer="2005" to-port="1" />
		<edge from-layer="2005" from-port="2" to-layer="2006" to-port="1" />
		<edge from-layer="2006" from-port="2" to-layer="2008" to-port="1" />
		<edge from-layer="2007" from-port="0" to-layer="2008" to-port="2" />
		<edge from-layer="2008" from-port="3" to-layer="2010" to-port="0" />
		<edge from-layer="2009" from-port="0" to-layer="2010" to-port="1" />
		<edge from-layer="2010" from-port="2" to-layer="2012" to-port="0" />
		<edge from-layer="2011" from-port="0" to-layer="2012" to-port="1" />
		<edge from-layer="2012" from-port="2" to-layer="2057" to-port="0" />
		<edge from-layer="2012" from-port="2" to-layer="2015" to-port="0" />
		<edge from-layer="2013" from-port="0" to-layer="2014" to-port="0" />
		<edge from-layer="2014" from-port="1" to-layer="2015" to-port="1" />
		<edge from-layer="2015" from-port="2" to-layer="2016" to-port="1" />
		<edge from-layer="2016" from-port="2" to-layer="2017" to-port="1" />
		<edge from-layer="2017" from-port="2" to-layer="2018" to-port="1" />
		<edge from-layer="2018" from-port="2" to-layer="2042" to-port="0" />
		<edge from-layer="2019" from-port="0" to-layer="2020" to-port="0" />
		<edge from-layer="2020" from-port="1" to-layer="2041" to-port="0" />
		<edge from-layer="2021" from-port="0" to-layer="2022" to-port="0" />
		<edge from-layer="2022" from-port="1" to-layer="2026" to-port="0" />
		<edge from-layer="2023" from-port="0" to-layer="2024" to-port="0" />
		<edge from-layer="2024" from-port="1" to-layer="2025" to-port="1" />
		<edge from-layer="2025" from-port="2" to-layer="2026" to-port="1" />
		<edge from-layer="2026" from-port="2" to-layer="2028" to-port="0" />
		<edge from-layer="2027" from-port="0" to-layer="2028" to-port="1" />
		<edge from-layer="2028" from-port="2" to-layer="2031" to-port="0" />
		<edge from-layer="2029" from-port="0" to-layer="2030" to-port="0" />
		<edge from-layer="2030" from-port="1" to-layer="2031" to-port="1" />
		<edge from-layer="2031" from-port="2" to-layer="2034" to-port="0" />
		<edge from-layer="2032" from-port="0" to-layer="2033" to-port="0" />
		<edge from-layer="2033" from-port="1" to-layer="2034" to-port="1" />
		<edge from-layer="2034" from-port="2" to-layer="2036" to-port="0" />
		<edge from-layer="2035" from-port="0" to-layer="2036" to-port="1" />
		<edge from-layer="2036" from-port="2" to-layer="2037" to-port="0" />
		<edge from-layer="2037" from-port="1" to-layer="2040" to-port="0" />
		<edge from-layer="2038" from-port="0" to-layer="2039" to-port="0" />
		<edge from-layer="2039" from-port="1" to-layer="2040" to-port="1" />
		<edge from-layer="2040" from-port="2" to-layer="2041" to-port="1" />
		<edge from-layer="2041" from-port="2" to-layer="2042" to-port="1" />
		<edge from-layer="2042" from-port="2" to-layer="2044" to-port="0" />
		<edge from-layer="2043" from-port="0" to-layer="2044" to-port="1" />
		<edge from-layer="2044" from-port="2" to-layer="2047" to-port="0" />
		<edge from-layer="2045" from-port="0" to-layer="2046" to-port="0" />
		<edge from-layer="2046" from-port="1" to-layer="2047" to-port="1" />
		<edge from-layer="2047" from-port="2" to-layer="2048" to-port="0" />
		<edge from-layer="2048" from-port="1" to-layer="2050" to-port="0" />
		<edge from-layer="2049" from-port="0" to-layer="2050" to-port="1" />
		<edge from-layer="2050" from-port="2" to-layer="2052" to-port="0" />
		<edge from-layer="2051" from-port="0" to-layer="2052" to-port="1" />
		<edge from-layer="2052" from-port="2" to-layer="2061" to-port="0" />
		<edge from-layer="2053" from-port="0" to-layer="2054" to-port="0" />
		<edge from-layer="2054" from-port="1" to-layer="2058" to-port="0" />
		<edge from-layer="2055" from-port="0" to-layer="2056" to-port="0" />
		<edge from-layer="2056" from-port="1" to-layer="2057" to-port="1" />
		<edge from-layer="2057" from-port="2" to-layer="2058" to-port="1" />
		<edge from-layer="2058" from-port="2" to-layer="2062" to-port="0" />
		<edge from-layer="2058" from-port="2" to-layer="2060" to-port="0" />
		<edge from-layer="2059" from-port="0" to-layer="2060" to-port="1" />
		<edge from-layer="2060" from-port="2" to-layer="2061" to-port="1" />
		<edge from-layer="2061" from-port="2" to-layer="2068" to-port="0" />
		<edge from-layer="2062" from-port="1" to-layer="2065" to-port="0" />
		<edge from-layer="2063" from-port="0" to-layer="2065" to-port="1" />
		<edge from-layer="2064" from-port="0" to-layer="2065" to-port="2" />
		<edge from-layer="2065" from-port="3" to-layer="2067" to-port="0" />
		<edge from-layer="2066" from-port="0" to-layer="2067" to-port="1" />
		<edge from-layer="2067" from-port="2" to-layer="2068" to-port="1" />
		<edge from-layer="2068" from-port="2" to-layer="2069" to-port="0" />
		<edge from-layer="2069" from-port="2" to-layer="2071" to-port="0" />
		<edge from-layer="2070" from-port="0" to-layer="2071" to-port="1" />
		<edge from-layer="2071" from-port="2" to-layer="2074" to-port="0" />
		<edge from-layer="2072" from-port="0" to-layer="2073" to-port="0" />
		<edge from-layer="2073" from-port="1" to-layer="2074" to-port="1" />
		<edge from-layer="2074" from-port="2" to-layer="2077" to-port="0" />
		<edge from-layer="2075" from-port="0" to-layer="2076" to-port="0" />
		<edge from-layer="2076" from-port="1" to-layer="2077" to-port="1" />
		<edge from-layer="2077" from-port="2" to-layer="2079" to-port="0" />
		<edge from-layer="2078" from-port="0" to-layer="2079" to-port="1" />
		<edge from-layer="2079" from-port="2" to-layer="2080" to-port="0" />
		<edge from-layer="2080" from-port="1" to-layer="2083" to-port="0" />
		<edge from-layer="2081" from-port="0" to-layer="2082" to-port="0" />
		<edge from-layer="2082" from-port="1" to-layer="2083" to-port="1" />
		<edge from-layer="2083" from-port="2" to-layer="2084" to-port="1" />
		<edge from-layer="2084" from-port="2" to-layer="2087" to-port="0" />
		<edge from-layer="2085" from-port="0" to-layer="2086" to-port="0" />
		<edge from-layer="2086" from-port="1" to-layer="2087" to-port="1" />
		<edge from-layer="2087" from-port="2" to-layer="2088" to-port="1" />
		<edge from-layer="2088" from-port="2" to-layer="2089" to-port="0" />
		<edge from-layer="2089" from-port="2" to-layer="2092" to-port="0" />
		<edge from-layer="2090" from-port="0" to-layer="2091" to-port="0" />
		<edge from-layer="2091" from-port="1" to-layer="2092" to-port="1" />
		<edge from-layer="2092" from-port="2" to-layer="2093" to-port="1" />
		<edge from-layer="2093" from-port="2" to-layer="2095" to-port="0" />
		<edge from-layer="2094" from-port="0" to-layer="2095" to-port="1" />
		<edge from-layer="2095" from-port="2" to-layer="2098" to-port="0" />
		<edge from-layer="2096" from-port="0" to-layer="2097" to-port="0" />
		<edge from-layer="2097" from-port="1" to-layer="2098" to-port="1" />
		<edge from-layer="2098" from-port="2" to-layer="2101" to-port="0" />
		<edge from-layer="2099" from-port="0" to-layer="2100" to-port="0" />
		<edge from-layer="2100" from-port="1" to-layer="2101" to-port="1" />
		<edge from-layer="2101" from-port="2" to-layer="2103" to-port="0" />
		<edge from-layer="2102" from-port="0" to-layer="2103" to-port="1" />
		<edge from-layer="2103" from-port="2" to-layer="2104" to-port="0" />
		<edge from-layer="2104" from-port="1" to-layer="2105" to-port="0" />
		<edge from-layer="2104" from-port="1" to-layer="2114" to-port="0" />
		<edge from-layer="2105" from-port="1" to-layer="2109" to-port="0" />
		<edge from-layer="2105" from-port="1" to-layer="2148" to-port="0" />
		<edge from-layer="2106" from-port="0" to-layer="2109" to-port="1" />
		<edge from-layer="2107" from-port="0" to-layer="2109" to-port="2" />
		<edge from-layer="2108" from-port="0" to-layer="2109" to-port="3" />
		<edge from-layer="2109" from-port="4" to-layer="2111" to-port="0" />
		<edge from-layer="2110" from-port="0" to-layer="2111" to-port="1" />
		<edge from-layer="2111" from-port="2" to-layer="2113" to-port="0" />
		<edge from-layer="2112" from-port="0" to-layer="2113" to-port="1" />
		<edge from-layer="2113" from-port="2" to-layer="2114" to-port="1" />
		<edge from-layer="2114" from-port="2" to-layer="2152" to-port="0" />
		<edge from-layer="2115" from-port="2" to-layer="2118" to-port="0" />
		<edge from-layer="2116" from-port="0" to-layer="2117" to-port="0" />
		<edge from-layer="2117" from-port="1" to-layer="2118" to-port="1" />
		<edge from-layer="2118" from-port="2" to-layer="2120" to-port="0" />
		<edge from-layer="2119" from-port="0" to-layer="2120" to-port="1" />
		<edge from-layer="2120" from-port="2" to-layer="2123" to-port="0" />
		<edge from-layer="2121" from-port="0" to-layer="2122" to-port="0" />
		<edge from-layer="2122" from-port="1" to-layer="2123" to-port="1" />
		<edge from-layer="2123" from-port="2" to-layer="2125" to-port="0" />
		<edge from-layer="2124" from-port="0" to-layer="2125" to-port="1" />
		<edge from-layer="2125" from-port="2" to-layer="2160" to-port="0" />
		<edge from-layer="2125" from-port="3" to-layer="2129" to-port="0" />
		<edge from-layer="2125" from-port="3" to-layer="2127" to-port="0" />
		<edge from-layer="2126" from-port="0" to-layer="2127" to-port="1" />
		<edge from-layer="2127" from-port="2" to-layer="2150" to-port="0" />
		<edge from-layer="2128" from-port="0" to-layer="2134" to-port="0" />
		<edge from-layer="2129" from-port="1" to-layer="2132" to-port="0" />
		<edge from-layer="2130" from-port="0" to-layer="2132" to-port="1" />
		<edge from-layer="2131" from-port="0" to-layer="2132" to-port="2" />
		<edge from-layer="2132" from-port="3" to-layer="2134" to-port="1" />
		<edge from-layer="2133" from-port="0" to-layer="2134" to-port="2" />
		<edge from-layer="2134" from-port="3" to-layer="2136" to-port="0" />
		<edge from-layer="2135" from-port="0" to-layer="2136" to-port="1" />
		<edge from-layer="2136" from-port="2" to-layer="2143" to-port="0" />
		<edge from-layer="2137" from-port="0" to-layer="2138" to-port="0" />
		<edge from-layer="2138" from-port="2" to-layer="2140" to-port="0" />
		<edge from-layer="2138" from-port="2" to-layer="2142" to-port="2" />
		<edge from-layer="2139" from-port="0" to-layer="2140" to-port="1" />
		<edge from-layer="2140" from-port="2" to-layer="2142" to-port="0" />
		<edge from-layer="2141" from-port="0" to-layer="2142" to-port="1" />
		<edge from-layer="2142" from-port="3" to-layer="2143" to-port="1" />
		<edge from-layer="2143" from-port="2" to-layer="2145" to-port="0" />
		<edge from-layer="2144" from-port="0" to-layer="2145" to-port="1" />
		<edge from-layer="2145" from-port="2" to-layer="2149" to-port="0" />
		<edge from-layer="2146" from-port="0" to-layer="2148" to-port="1" />
		<edge from-layer="2147" from-port="0" to-layer="2148" to-port="2" />
		<edge from-layer="2148" from-port="3" to-layer="2149" to-port="1" />
		<edge from-layer="2149" from-port="2" to-layer="2150" to-port="1" />
		<edge from-layer="2150" from-port="2" to-layer="2152" to-port="1" />
		<edge from-layer="2151" from-port="0" to-layer="2152" to-port="2" />
		<edge from-layer="2152" from-port="3" to-layer="2154" to-port="0" />
		<edge from-layer="2153" from-port="0" to-layer="2154" to-port="1" />
		<edge from-layer="2154" from-port="2" to-layer="2156" to-port="0" />
		<edge from-layer="2155" from-port="0" to-layer="2156" to-port="1" />
		<edge from-layer="2156" from-port="2" to-layer="2168" to-port="0" />
		<edge from-layer="2157" from-port="0" to-layer="2158" to-port="0" />
		<edge from-layer="2158" from-port="1" to-layer="2161" to-port="0" />
		<edge from-layer="2159" from-port="0" to-layer="2160" to-port="1" />
		<edge from-layer="2160" from-port="2" to-layer="2161" to-port="1" />
		<edge from-layer="2161" from-port="2" to-layer="2163" to-port="0" />
		<edge from-layer="2161" from-port="2" to-layer="2162" to-port="0" />
		<edge from-layer="2162" from-port="2" to-layer="2163" to-port="1" />
		<edge from-layer="2163" from-port="2" to-layer="2165" to-port="0" />
		<edge from-layer="2164" from-port="0" to-layer="2165" to-port="1" />
		<edge from-layer="2165" from-port="2" to-layer="2167" to-port="0" />
		<edge from-layer="2166" from-port="0" to-layer="2167" to-port="1" />
		<edge from-layer="2167" from-port="2" to-layer="2168" to-port="1" />
		<edge from-layer="2168" from-port="2" to-layer="2170" to-port="0" />
		<edge from-layer="2169" from-port="0" to-layer="2170" to-port="1" />
		<edge from-layer="2170" from-port="2" to-layer="2171" to-port="0" />
		<edge from-layer="2171" from-port="2" to-layer="2173" to-port="0" />
		<edge from-layer="2172" from-port="0" to-layer="2173" to-port="1" />
		<edge from-layer="2173" from-port="2" to-layer="2191" to-port="0" />
		<edge from-layer="2174" from-port="0" to-layer="2175" to-port="0" />
		<edge from-layer="2175" from-port="1" to-layer="2179" to-port="0" />
		<edge from-layer="2176" from-port="0" to-layer="2177" to-port="0" />
		<edge from-layer="2177" from-port="1" to-layer="2178" to-port="1" />
		<edge from-layer="2178" from-port="2" to-layer="2179" to-port="1" />
		<edge from-layer="2179" from-port="2" to-layer="2181" to-port="0" />
		<edge from-layer="2180" from-port="0" to-layer="2181" to-port="1" />
		<edge from-layer="2181" from-port="2" to-layer="2184" to-port="0" />
		<edge from-layer="2182" from-port="0" to-layer="2183" to-port="0" />
		<edge from-layer="2183" from-port="1" to-layer="2184" to-port="1" />
		<edge from-layer="2184" from-port="2" to-layer="2187" to-port="0" />
		<edge from-layer="2185" from-port="0" to-layer="2186" to-port="0" />
		<edge from-layer="2186" from-port="1" to-layer="2187" to-port="1" />
		<edge from-layer="2187" from-port="2" to-layer="2189" to-port="0" />
		<edge from-layer="2188" from-port="0" to-layer="2189" to-port="1" />
		<edge from-layer="2189" from-port="2" to-layer="2190" to-port="0" />
		<edge from-layer="2190" from-port="1" to-layer="2191" to-port="1" />
		<edge from-layer="2191" from-port="2" to-layer="2206" to-port="0" />
		<edge from-layer="2192" from-port="0" to-layer="2193" to-port="0" />
		<edge from-layer="2193" from-port="1" to-layer="2205" to-port="0" />
		<edge from-layer="2194" from-port="0" to-layer="2195" to-port="1" />
		<edge from-layer="2195" from-port="2" to-layer="2198" to-port="0" />
		<edge from-layer="2196" from-port="0" to-layer="2197" to-port="0" />
		<edge from-layer="2197" from-port="1" to-layer="2198" to-port="1" />
		<edge from-layer="2198" from-port="2" to-layer="2201" to-port="0" />
		<edge from-layer="2199" from-port="0" to-layer="2200" to-port="0" />
		<edge from-layer="2200" from-port="1" to-layer="2201" to-port="1" />
		<edge from-layer="2201" from-port="2" to-layer="2204" to-port="0" />
		<edge from-layer="2202" from-port="0" to-layer="2203" to-port="0" />
		<edge from-layer="2203" from-port="1" to-layer="2204" to-port="1" />
		<edge from-layer="2204" from-port="2" to-layer="2205" to-port="1" />
		<edge from-layer="2205" from-port="2" to-layer="2206" to-port="1" />
		<edge from-layer="2206" from-port="2" to-layer="2209" to-port="0" />
		<edge from-layer="2206" from-port="2" to-layer="2316" to-port="1" />
		<edge from-layer="2207" from-port="0" to-layer="2208" to-port="0" />
		<edge from-layer="2208" from-port="1" to-layer="2209" to-port="1" />
		<edge from-layer="2209" from-port="2" to-layer="2210" to-port="1" />
		<edge from-layer="2210" from-port="2" to-layer="2228" to-port="0" />
		<edge from-layer="2210" from-port="2" to-layer="2212" to-port="0" />
		<edge from-layer="2210" from-port="2" to-layer="2219" to-port="0" />
		<edge from-layer="2211" from-port="0" to-layer="2212" to-port="1" />
		<edge from-layer="2212" from-port="2" to-layer="2215" to-port="0" />
		<edge from-layer="2213" from-port="0" to-layer="2214" to-port="0" />
		<edge from-layer="2214" from-port="1" to-layer="2215" to-port="1" />
		<edge from-layer="2215" from-port="2" to-layer="2216" to-port="1" />
		<edge from-layer="2216" from-port="2" to-layer="2244" to-port="0" />
		<edge from-layer="2217" from-port="0" to-layer="2218" to-port="0" />
		<edge from-layer="2218" from-port="1" to-layer="2243" to-port="0" />
		<edge from-layer="2219" from-port="1" to-layer="2231" to-port="0" />
		<edge from-layer="2219" from-port="1" to-layer="2223" to-port="0" />
		<edge from-layer="2220" from-port="0" to-layer="2223" to-port="1" />
		<edge from-layer="2221" from-port="0" to-layer="2223" to-port="2" />
		<edge from-layer="2222" from-port="0" to-layer="2223" to-port="3" />
		<edge from-layer="2223" from-port="4" to-layer="2225" to-port="0" />
		<edge from-layer="2224" from-port="0" to-layer="2225" to-port="1" />
		<edge from-layer="2225" from-port="2" to-layer="2227" to-port="0" />
		<edge from-layer="2226" from-port="0" to-layer="2227" to-port="1" />
		<edge from-layer="2227" from-port="2" to-layer="2228" to-port="1" />
		<edge from-layer="2228" from-port="2" to-layer="2235" to-port="0" />
		<edge from-layer="2229" from-port="0" to-layer="2231" to-port="1" />
		<edge from-layer="2230" from-port="0" to-layer="2231" to-port="2" />
		<edge from-layer="2231" from-port="3" to-layer="2232" to-port="1" />
		<edge from-layer="2232" from-port="2" to-layer="2233" to-port="1" />
		<edge from-layer="2233" from-port="2" to-layer="2235" to-port="1" />
		<edge from-layer="2234" from-port="0" to-layer="2235" to-port="2" />
		<edge from-layer="2235" from-port="3" to-layer="2237" to-port="0" />
		<edge from-layer="2236" from-port="0" to-layer="2237" to-port="1" />
		<edge from-layer="2237" from-port="2" to-layer="2239" to-port="0" />
		<edge from-layer="2238" from-port="0" to-layer="2239" to-port="1" />
		<edge from-layer="2239" from-port="2" to-layer="2242" to-port="0" />
		<edge from-layer="2239" from-port="2" to-layer="2284" to-port="0" />
		<edge from-layer="2240" from-port="0" to-layer="2241" to-port="0" />
		<edge from-layer="2241" from-port="1" to-layer="2242" to-port="1" />
		<edge from-layer="2242" from-port="2" to-layer="2243" to-port="1" />
		<edge from-layer="2243" from-port="2" to-layer="2244" to-port="1" />
		<edge from-layer="2244" from-port="2" to-layer="2245" to-port="1" />
		<edge from-layer="2245" from-port="2" to-layer="2269" to-port="0" />
		<edge from-layer="2246" from-port="0" to-layer="2247" to-port="0" />
		<edge from-layer="2247" from-port="1" to-layer="2268" to-port="0" />
		<edge from-layer="2248" from-port="0" to-layer="2249" to-port="0" />
		<edge from-layer="2249" from-port="1" to-layer="2253" to-port="0" />
		<edge from-layer="2250" from-port="0" to-layer="2251" to-port="0" />
		<edge from-layer="2251" from-port="1" to-layer="2252" to-port="1" />
		<edge from-layer="2252" from-port="2" to-layer="2253" to-port="1" />
		<edge from-layer="2253" from-port="2" to-layer="2255" to-port="0" />
		<edge from-layer="2254" from-port="0" to-layer="2255" to-port="1" />
		<edge from-layer="2255" from-port="2" to-layer="2258" to-port="0" />
		<edge from-layer="2256" from-port="0" to-layer="2257" to-port="0" />
		<edge from-layer="2257" from-port="1" to-layer="2258" to-port="1" />
		<edge from-layer="2258" from-port="2" to-layer="2261" to-port="0" />
		<edge from-layer="2259" from-port="0" to-layer="2260" to-port="0" />
		<edge from-layer="2260" from-port="1" to-layer="2261" to-port="1" />
		<edge from-layer="2261" from-port="2" to-layer="2263" to-port="0" />
		<edge from-layer="2262" from-port="0" to-layer="2263" to-port="1" />
		<edge from-layer="2263" from-port="2" to-layer="2264" to-port="0" />
		<edge from-layer="2264" from-port="1" to-layer="2267" to-port="0" />
		<edge from-layer="2265" from-port="0" to-layer="2266" to-port="0" />
		<edge from-layer="2266" from-port="1" to-layer="2267" to-port="1" />
		<edge from-layer="2267" from-port="2" to-layer="2268" to-port="1" />
		<edge from-layer="2268" from-port="2" to-layer="2269" to-port="1" />
		<edge from-layer="2269" from-port="2" to-layer="2271" to-port="0" />
		<edge from-layer="2270" from-port="0" to-layer="2271" to-port="1" />
		<edge from-layer="2271" from-port="2" to-layer="2274" to-port="0" />
		<edge from-layer="2272" from-port="0" to-layer="2273" to-port="0" />
		<edge from-layer="2273" from-port="1" to-layer="2274" to-port="1" />
		<edge from-layer="2274" from-port="2" to-layer="2275" to-port="0" />
		<edge from-layer="2275" from-port="1" to-layer="2277" to-port="0" />
		<edge from-layer="2276" from-port="0" to-layer="2277" to-port="1" />
		<edge from-layer="2277" from-port="2" to-layer="2279" to-port="0" />
		<edge from-layer="2278" from-port="0" to-layer="2279" to-port="1" />
		<edge from-layer="2279" from-port="2" to-layer="2288" to-port="0" />
		<edge from-layer="2280" from-port="0" to-layer="2281" to-port="0" />
		<edge from-layer="2281" from-port="1" to-layer="2285" to-port="0" />
		<edge from-layer="2282" from-port="0" to-layer="2283" to-port="0" />
		<edge from-layer="2283" from-port="1" to-layer="2284" to-port="1" />
		<edge from-layer="2284" from-port="2" to-layer="2285" to-port="1" />
		<edge from-layer="2285" from-port="2" to-layer="2287" to-port="0" />
		<edge from-layer="2285" from-port="2" to-layer="2289" to-port="0" />
		<edge from-layer="2286" from-port="0" to-layer="2287" to-port="1" />
		<edge from-layer="2287" from-port="2" to-layer="2288" to-port="1" />
		<edge from-layer="2288" from-port="2" to-layer="2295" to-port="0" />
		<edge from-layer="2289" from-port="1" to-layer="2292" to-port="0" />
		<edge from-layer="2290" from-port="0" to-layer="2292" to-port="1" />
		<edge from-layer="2291" from-port="0" to-layer="2292" to-port="2" />
		<edge from-layer="2292" from-port="3" to-layer="2294" to-port="0" />
		<edge from-layer="2293" from-port="0" to-layer="2294" to-port="1" />
		<edge from-layer="2294" from-port="2" to-layer="2295" to-port="1" />
		<edge from-layer="2295" from-port="2" to-layer="2296" to-port="0" />
		<edge from-layer="2296" from-port="2" to-layer="2298" to-port="0" />
		<edge from-layer="2297" from-port="0" to-layer="2298" to-port="1" />
		<edge from-layer="2298" from-port="2" to-layer="2301" to-port="0" />
		<edge from-layer="2299" from-port="0" to-layer="2300" to-port="0" />
		<edge from-layer="2300" from-port="1" to-layer="2301" to-port="1" />
		<edge from-layer="2301" from-port="2" to-layer="2304" to-port="0" />
		<edge from-layer="2302" from-port="0" to-layer="2303" to-port="0" />
		<edge from-layer="2303" from-port="1" to-layer="2304" to-port="1" />
		<edge from-layer="2304" from-port="2" to-layer="2306" to-port="0" />
		<edge from-layer="2305" from-port="0" to-layer="2306" to-port="1" />
		<edge from-layer="2306" from-port="2" to-layer="2307" to-port="0" />
		<edge from-layer="2307" from-port="1" to-layer="2310" to-port="0" />
		<edge from-layer="2308" from-port="0" to-layer="2309" to-port="0" />
		<edge from-layer="2309" from-port="1" to-layer="2310" to-port="1" />
		<edge from-layer="2310" from-port="2" to-layer="2311" to-port="1" />
		<edge from-layer="2311" from-port="2" to-layer="2314" to-port="0" />
		<edge from-layer="2312" from-port="0" to-layer="2313" to-port="0" />
		<edge from-layer="2313" from-port="1" to-layer="2314" to-port="1" />
		<edge from-layer="2314" from-port="2" to-layer="2315" to-port="1" />
		<edge from-layer="2315" from-port="2" to-layer="2316" to-port="0" />
		<edge from-layer="2316" from-port="2" to-layer="2319" to-port="0" />
		<edge from-layer="2317" from-port="0" to-layer="2318" to-port="0" />
		<edge from-layer="2318" from-port="1" to-layer="2319" to-port="1" />
		<edge from-layer="2319" from-port="2" to-layer="2320" to-port="1" />
		<edge from-layer="2320" from-port="2" to-layer="2322" to-port="0" />
		<edge from-layer="2321" from-port="0" to-layer="2322" to-port="1" />
		<edge from-layer="2322" from-port="2" to-layer="2325" to-port="0" />
		<edge from-layer="2323" from-port="0" to-layer="2324" to-port="0" />
		<edge from-layer="2324" from-port="1" to-layer="2325" to-port="1" />
		<edge from-layer="2325" from-port="2" to-layer="2328" to-port="0" />
		<edge from-layer="2326" from-port="0" to-layer="2327" to-port="0" />
		<edge from-layer="2327" from-port="1" to-layer="2328" to-port="1" />
		<edge from-layer="2328" from-port="2" to-layer="2330" to-port="0" />
		<edge from-layer="2329" from-port="0" to-layer="2330" to-port="1" />
		<edge from-layer="2330" from-port="2" to-layer="2331" to-port="0" />
		<edge from-layer="2331" from-port="1" to-layer="2332" to-port="0" />
		<edge from-layer="2331" from-port="1" to-layer="2341" to-port="0" />
		<edge from-layer="2332" from-port="1" to-layer="2336" to-port="0" />
		<edge from-layer="2332" from-port="1" to-layer="2368" to-port="0" />
		<edge from-layer="2333" from-port="0" to-layer="2336" to-port="1" />
		<edge from-layer="2334" from-port="0" to-layer="2336" to-port="2" />
		<edge from-layer="2335" from-port="0" to-layer="2336" to-port="3" />
		<edge from-layer="2336" from-port="4" to-layer="2338" to-port="0" />
		<edge from-layer="2337" from-port="0" to-layer="2338" to-port="1" />
		<edge from-layer="2338" from-port="2" to-layer="2340" to-port="0" />
		<edge from-layer="2339" from-port="0" to-layer="2340" to-port="1" />
		<edge from-layer="2340" from-port="2" to-layer="2341" to-port="1" />
		<edge from-layer="2341" from-port="2" to-layer="2372" to-port="0" />
		<edge from-layer="2342" from-port="2" to-layer="2345" to-port="0" />
		<edge from-layer="2343" from-port="0" to-layer="2344" to-port="0" />
		<edge from-layer="2344" from-port="1" to-layer="2345" to-port="1" />
		<edge from-layer="2345" from-port="2" to-layer="2347" to-port="0" />
		<edge from-layer="2346" from-port="0" to-layer="2347" to-port="1" />
		<edge from-layer="2347" from-port="2" to-layer="2350" to-port="0" />
		<edge from-layer="2348" from-port="0" to-layer="2349" to-port="0" />
		<edge from-layer="2349" from-port="1" to-layer="2350" to-port="1" />
		<edge from-layer="2350" from-port="2" to-layer="2352" to-port="0" />
		<edge from-layer="2351" from-port="0" to-layer="2352" to-port="1" />
		<edge from-layer="2352" from-port="2" to-layer="2380" to-port="0" />
		<edge from-layer="2352" from-port="3" to-layer="2354" to-port="0" />
		<edge from-layer="2353" from-port="0" to-layer="2354" to-port="1" />
		<edge from-layer="2354" from-port="2" to-layer="2370" to-port="0" />
		<edge from-layer="2355" from-port="0" to-layer="2356" to-port="1" />
		<edge from-layer="2356" from-port="2" to-layer="2363" to-port="0" />
		<edge from-layer="2357" from-port="0" to-layer="2358" to-port="0" />
		<edge from-layer="2358" from-port="2" to-layer="2362" to-port="2" />
		<edge from-layer="2358" from-port="2" to-layer="2360" to-port="0" />
		<edge from-layer="2359" from-port="0" to-layer="2360" to-port="1" />
		<edge from-layer="2360" from-port="2" to-layer="2362" to-port="0" />
		<edge from-layer="2361" from-port="0" to-layer="2362" to-port="1" />
		<edge from-layer="2362" from-port="3" to-layer="2363" to-port="1" />
		<edge from-layer="2363" from-port="2" to-layer="2365" to-port="0" />
		<edge from-layer="2364" from-port="0" to-layer="2365" to-port="1" />
		<edge from-layer="2365" from-port="2" to-layer="2369" to-port="0" />
		<edge from-layer="2366" from-port="0" to-layer="2368" to-port="1" />
		<edge from-layer="2367" from-port="0" to-layer="2368" to-port="2" />
		<edge from-layer="2368" from-port="3" to-layer="2369" to-port="1" />
		<edge from-layer="2369" from-port="2" to-layer="2370" to-port="1" />
		<edge from-layer="2370" from-port="2" to-layer="2372" to-port="1" />
		<edge from-layer="2371" from-port="0" to-layer="2372" to-port="2" />
		<edge from-layer="2372" from-port="3" to-layer="2374" to-port="0" />
		<edge from-layer="2373" from-port="0" to-layer="2374" to-port="1" />
		<edge from-layer="2374" from-port="2" to-layer="2376" to-port="0" />
		<edge from-layer="2375" from-port="0" to-layer="2376" to-port="1" />
		<edge from-layer="2376" from-port="2" to-layer="2388" to-port="0" />
		<edge from-layer="2377" from-port="0" to-layer="2378" to-port="0" />
		<edge from-layer="2378" from-port="1" to-layer="2381" to-port="0" />
		<edge from-layer="2379" from-port="0" to-layer="2380" to-port="1" />
		<edge from-layer="2380" from-port="2" to-layer="2381" to-port="1" />
		<edge from-layer="2381" from-port="2" to-layer="2382" to-port="0" />
		<edge from-layer="2381" from-port="2" to-layer="2383" to-port="0" />
		<edge from-layer="2382" from-port="2" to-layer="2383" to-port="1" />
		<edge from-layer="2383" from-port="2" to-layer="2385" to-port="0" />
		<edge from-layer="2384" from-port="0" to-layer="2385" to-port="1" />
		<edge from-layer="2385" from-port="2" to-layer="2387" to-port="0" />
		<edge from-layer="2386" from-port="0" to-layer="2387" to-port="1" />
		<edge from-layer="2387" from-port="2" to-layer="2388" to-port="1" />
		<edge from-layer="2388" from-port="2" to-layer="2390" to-port="0" />
		<edge from-layer="2389" from-port="0" to-layer="2390" to-port="1" />
		<edge from-layer="2390" from-port="2" to-layer="2391" to-port="0" />
		<edge from-layer="2391" from-port="2" to-layer="2393" to-port="0" />
		<edge from-layer="2392" from-port="0" to-layer="2393" to-port="1" />
		<edge from-layer="2393" from-port="2" to-layer="2411" to-port="0" />
		<edge from-layer="2394" from-port="0" to-layer="2395" to-port="0" />
		<edge from-layer="2395" from-port="1" to-layer="2399" to-port="0" />
		<edge from-layer="2396" from-port="0" to-layer="2397" to-port="0" />
		<edge from-layer="2397" from-port="1" to-layer="2398" to-port="1" />
		<edge from-layer="2398" from-port="2" to-layer="2399" to-port="1" />
		<edge from-layer="2399" from-port="2" to-layer="2401" to-port="0" />
		<edge from-layer="2400" from-port="0" to-layer="2401" to-port="1" />
		<edge from-layer="2401" from-port="2" to-layer="2404" to-port="0" />
		<edge from-layer="2402" from-port="0" to-layer="2403" to-port="0" />
		<edge from-layer="2403" from-port="1" to-layer="2404" to-port="1" />
		<edge from-layer="2404" from-port="2" to-layer="2407" to-port="0" />
		<edge from-layer="2405" from-port="0" to-layer="2406" to-port="0" />
		<edge from-layer="2406" from-port="1" to-layer="2407" to-port="1" />
		<edge from-layer="2407" from-port="2" to-layer="2409" to-port="0" />
		<edge from-layer="2408" from-port="0" to-layer="2409" to-port="1" />
		<edge from-layer="2409" from-port="2" to-layer="2410" to-port="0" />
		<edge from-layer="2410" from-port="1" to-layer="2411" to-port="1" />
		<edge from-layer="2411" from-port="2" to-layer="2426" to-port="0" />
		<edge from-layer="2412" from-port="0" to-layer="2413" to-port="0" />
		<edge from-layer="2413" from-port="1" to-layer="2425" to-port="0" />
		<edge from-layer="2414" from-port="0" to-layer="2415" to-port="1" />
		<edge from-layer="2415" from-port="2" to-layer="2418" to-port="0" />
		<edge from-layer="2416" from-port="0" to-layer="2417" to-port="0" />
		<edge from-layer="2417" from-port="1" to-layer="2418" to-port="1" />
		<edge from-layer="2418" from-port="2" to-layer="2421" to-port="0" />
		<edge from-layer="2419" from-port="0" to-layer="2420" to-port="0" />
		<edge from-layer="2420" from-port="1" to-layer="2421" to-port="1" />
		<edge from-layer="2421" from-port="2" to-layer="2424" to-port="0" />
		<edge from-layer="2422" from-port="0" to-layer="2423" to-port="0" />
		<edge from-layer="2423" from-port="1" to-layer="2424" to-port="1" />
		<edge from-layer="2424" from-port="2" to-layer="2425" to-port="1" />
		<edge from-layer="2425" from-port="2" to-layer="2426" to-port="1" />
		<edge from-layer="2426" from-port="2" to-layer="2429" to-port="0" />
		<edge from-layer="2426" from-port="2" to-layer="2540" to-port="1" />
		<edge from-layer="2427" from-port="0" to-layer="2428" to-port="0" />
		<edge from-layer="2428" from-port="1" to-layer="2429" to-port="1" />
		<edge from-layer="2429" from-port="2" to-layer="2430" to-port="1" />
		<edge from-layer="2430" from-port="2" to-layer="2432" to-port="0" />
		<edge from-layer="2430" from-port="2" to-layer="2439" to-port="0" />
		<edge from-layer="2430" from-port="2" to-layer="2448" to-port="0" />
		<edge from-layer="2431" from-port="0" to-layer="2432" to-port="1" />
		<edge from-layer="2432" from-port="2" to-layer="2435" to-port="0" />
		<edge from-layer="2433" from-port="0" to-layer="2434" to-port="0" />
		<edge from-layer="2434" from-port="1" to-layer="2435" to-port="1" />
		<edge from-layer="2435" from-port="2" to-layer="2436" to-port="1" />
		<edge from-layer="2436" from-port="2" to-layer="2468" to-port="0" />
		<edge from-layer="2437" from-port="0" to-layer="2438" to-port="0" />
		<edge from-layer="2438" from-port="1" to-layer="2467" to-port="0" />
		<edge from-layer="2439" from-port="1" to-layer="2443" to-port="0" />
		<edge from-layer="2439" from-port="1" to-layer="2451" to-port="0" />
		<edge from-layer="2439" from-port="1" to-layer="2461" to-port="0" />
		<edge from-layer="2440" from-port="0" to-layer="2443" to-port="1" />
		<edge from-layer="2441" from-port="0" to-layer="2443" to-port="2" />
		<edge from-layer="2442" from-port="0" to-layer="2443" to-port="3" />
		<edge from-layer="2443" from-port="4" to-layer="2445" to-port="0" />
		<edge from-layer="2444" from-port="0" to-layer="2445" to-port="1" />
		<edge from-layer="2445" from-port="2" to-layer="2447" to-port="0" />
		<edge from-layer="2446" from-port="0" to-layer="2447" to-port="1" />
		<edge from-layer="2447" from-port="2" to-layer="2448" to-port="1" />
		<edge from-layer="2448" from-port="2" to-layer="2455" to-port="0" />
		<edge from-layer="2449" from-port="0" to-layer="2451" to-port="1" />
		<edge from-layer="2450" from-port="0" to-layer="2451" to-port="2" />
		<edge from-layer="2451" from-port="3" to-layer="2452" to-port="1" />
		<edge from-layer="2452" from-port="2" to-layer="2453" to-port="1" />
		<edge from-layer="2453" from-port="2" to-layer="2458" to-port="0" />
		<edge from-layer="2453" from-port="2" to-layer="2455" to-port="1" />
		<edge from-layer="2454" from-port="0" to-layer="2455" to-port="2" />
		<edge from-layer="2455" from-port="3" to-layer="2457" to-port="0" />
		<edge from-layer="2456" from-port="0" to-layer="2457" to-port="1" />
		<edge from-layer="2457" from-port="2" to-layer="2463" to-port="0" />
		<edge from-layer="2458" from-port="1" to-layer="2462" to-port="0" />
		<edge from-layer="2459" from-port="0" to-layer="2461" to-port="1" />
		<edge from-layer="2460" from-port="0" to-layer="2461" to-port="2" />
		<edge from-layer="2461" from-port="3" to-layer="2462" to-port="1" />
		<edge from-layer="2462" from-port="2" to-layer="2463" to-port="1" />
		<edge from-layer="2463" from-port="2" to-layer="2466" to-port="0" />
		<edge from-layer="2463" from-port="2" to-layer="2508" to-port="0" />
		<edge from-layer="2464" from-port="0" to-layer="2465" to-port="0" />
		<edge from-layer="2465" from-port="1" to-layer="2466" to-port="1" />
		<edge from-layer="2466" from-port="2" to-layer="2467" to-port="1" />
		<edge from-layer="2467" from-port="2" to-layer="2468" to-port="1" />
		<edge from-layer="2468" from-port="2" to-layer="2469" to-port="1" />
		<edge from-layer="2469" from-port="2" to-layer="2493" to-port="0" />
		<edge from-layer="2470" from-port="0" to-layer="2471" to-port="0" />
		<edge from-layer="2471" from-port="1" to-layer="2492" to-port="0" />
		<edge from-layer="2472" from-port="0" to-layer="2473" to-port="0" />
		<edge from-layer="2473" from-port="1" to-layer="2477" to-port="0" />
		<edge from-layer="2474" from-port="0" to-layer="2475" to-port="0" />
		<edge from-layer="2475" from-port="1" to-layer="2476" to-port="1" />
		<edge from-layer="2476" from-port="2" to-layer="2477" to-port="1" />
		<edge from-layer="2477" from-port="2" to-layer="2479" to-port="0" />
		<edge from-layer="2478" from-port="0" to-layer="2479" to-port="1" />
		<edge from-layer="2479" from-port="2" to-layer="2482" to-port="0" />
		<edge from-layer="2480" from-port="0" to-layer="2481" to-port="0" />
		<edge from-layer="2481" from-port="1" to-layer="2482" to-port="1" />
		<edge from-layer="2482" from-port="2" to-layer="2485" to-port="0" />
		<edge from-layer="2483" from-port="0" to-layer="2484" to-port="0" />
		<edge from-layer="2484" from-port="1" to-layer="2485" to-port="1" />
		<edge from-layer="2485" from-port="2" to-layer="2487" to-port="0" />
		<edge from-layer="2486" from-port="0" to-layer="2487" to-port="1" />
		<edge from-layer="2487" from-port="2" to-layer="2488" to-port="0" />
		<edge from-layer="2488" from-port="1" to-layer="2491" to-port="0" />
		<edge from-layer="2489" from-port="0" to-layer="2490" to-port="0" />
		<edge from-layer="2490" from-port="1" to-layer="2491" to-port="1" />
		<edge from-layer="2491" from-port="2" to-layer="2492" to-port="1" />
		<edge from-layer="2492" from-port="2" to-layer="2493" to-port="1" />
		<edge from-layer="2493" from-port="2" to-layer="2495" to-port="0" />
		<edge from-layer="2494" from-port="0" to-layer="2495" to-port="1" />
		<edge from-layer="2495" from-port="2" to-layer="2498" to-port="0" />
		<edge from-layer="2496" from-port="0" to-layer="2497" to-port="0" />
		<edge from-layer="2497" from-port="1" to-layer="2498" to-port="1" />
		<edge from-layer="2498" from-port="2" to-layer="2499" to-port="0" />
		<edge from-layer="2499" from-port="1" to-layer="2501" to-port="0" />
		<edge from-layer="2500" from-port="0" to-layer="2501" to-port="1" />
		<edge from-layer="2501" from-port="2" to-layer="2503" to-port="0" />
		<edge from-layer="2502" from-port="0" to-layer="2503" to-port="1" />
		<edge from-layer="2503" from-port="2" to-layer="2512" to-port="0" />
		<edge from-layer="2504" from-port="0" to-layer="2505" to-port="0" />
		<edge from-layer="2505" from-port="1" to-layer="2509" to-port="0" />
		<edge from-layer="2506" from-port="0" to-layer="2507" to-port="0" />
		<edge from-layer="2507" from-port="1" to-layer="2508" to-port="1" />
		<edge from-layer="2508" from-port="2" to-layer="2509" to-port="1" />
		<edge from-layer="2509" from-port="2" to-layer="2513" to-port="0" />
		<edge from-layer="2509" from-port="2" to-layer="2511" to-port="0" />
		<edge from-layer="2510" from-port="0" to-layer="2511" to-port="1" />
		<edge from-layer="2511" from-port="2" to-layer="2512" to-port="1" />
		<edge from-layer="2512" from-port="2" to-layer="2519" to-port="0" />
		<edge from-layer="2513" from-port="1" to-layer="2516" to-port="0" />
		<edge from-layer="2514" from-port="0" to-layer="2516" to-port="1" />
		<edge from-layer="2515" from-port="0" to-layer="2516" to-port="2" />
		<edge from-layer="2516" from-port="3" to-layer="2518" to-port="0" />
		<edge from-layer="2517" from-port="0" to-layer="2518" to-port="1" />
		<edge from-layer="2518" from-port="2" to-layer="2519" to-port="1" />
		<edge from-layer="2519" from-port="2" to-layer="2520" to-port="0" />
		<edge from-layer="2520" from-port="2" to-layer="2522" to-port="0" />
		<edge from-layer="2521" from-port="0" to-layer="2522" to-port="1" />
		<edge from-layer="2522" from-port="2" to-layer="2525" to-port="0" />
		<edge from-layer="2523" from-port="0" to-layer="2524" to-port="0" />
		<edge from-layer="2524" from-port="1" to-layer="2525" to-port="1" />
		<edge from-layer="2525" from-port="2" to-layer="2528" to-port="0" />
		<edge from-layer="2526" from-port="0" to-layer="2527" to-port="0" />
		<edge from-layer="2527" from-port="1" to-layer="2528" to-port="1" />
		<edge from-layer="2528" from-port="2" to-layer="2530" to-port="0" />
		<edge from-layer="2529" from-port="0" to-layer="2530" to-port="1" />
		<edge from-layer="2530" from-port="2" to-layer="2531" to-port="0" />
		<edge from-layer="2531" from-port="1" to-layer="2534" to-port="0" />
		<edge from-layer="2532" from-port="0" to-layer="2533" to-port="0" />
		<edge from-layer="2533" from-port="1" to-layer="2534" to-port="1" />
		<edge from-layer="2534" from-port="2" to-layer="2535" to-port="1" />
		<edge from-layer="2535" from-port="2" to-layer="2538" to-port="0" />
		<edge from-layer="2536" from-port="0" to-layer="2537" to-port="0" />
		<edge from-layer="2537" from-port="1" to-layer="2538" to-port="1" />
		<edge from-layer="2538" from-port="2" to-layer="2539" to-port="1" />
		<edge from-layer="2539" from-port="2" to-layer="2540" to-port="0" />
		<edge from-layer="2540" from-port="2" to-layer="2543" to-port="0" />
		<edge from-layer="2541" from-port="0" to-layer="2542" to-port="0" />
		<edge from-layer="2542" from-port="1" to-layer="2543" to-port="1" />
		<edge from-layer="2543" from-port="2" to-layer="2544" to-port="1" />
		<edge from-layer="2544" from-port="2" to-layer="2545" to-port="0" />
	</edges>
	<rt_info>
		<MO_version value="2024.4.0-16579-c3152d32c9c-releases/2024/4" />
		<Runtime_version value="2024.4.0-16579-c3152d32c9c-releases/2024/4" />
		<conversion_parameters>
			<input_model value="DIR\model.onnx" />
			<input_shape value="[1,2048,4]" />
			<is_python_api_used value="False" />
			<output_dir value="DIR" />
		</conversion_parameters>
		<legacy_frontend value="False" />
	</rt_info>
</net>
